program(1.0)
[buildInfo = dict<tensor<string, []>, tensor<string, []>>({{"coremlc-component-MIL", "3405.2.1"}, {"coremlc-version", "3404.23.1"}, {"coremltools-component-torch", "2.10.0"}, {"coremltools-source-dialect", "TorchScript"}, {"coremltools-version", "9.0"}})]
{
    func main<ios15>(tensor<fp32, [1, 80, 3000]> logmel_data) {
            tensor<string, []> var_44_pad_type_0 = const()[name = tensor<string, []>("op_44_pad_type_0"), val = tensor<string, []>("custom")];
            tensor<int32, [2]> var_44_pad_0 = const()[name = tensor<string, []>("op_44_pad_0"), val = tensor<int32, [2]>([1, 1])];
            tensor<int32, [1]> var_44_strides_0 = const()[name = tensor<string, []>("op_44_strides_0"), val = tensor<int32, [1]>([1])];
            tensor<int32, [1]> var_44_dilations_0 = const()[name = tensor<string, []>("op_44_dilations_0"), val = tensor<int32, [1]>([1])];
            tensor<int32, []> var_44_groups_0 = const()[name = tensor<string, []>("op_44_groups_0"), val = tensor<int32, []>(1)];
            tensor<string, []> logmel_data_to_fp16_dtype_0 = const()[name = tensor<string, []>("logmel_data_to_fp16_dtype_0"), val = tensor<string, []>("fp16")];
            tensor<fp16, [768, 80, 3]> const_0_to_fp16 = const()[name = tensor<string, []>("const_0_to_fp16"), val = tensor<fp16, [768, 80, 3]>(BLOBFILE(path = tensor<string, []>("@model_path/weights/weight.bin"), offset = tensor<uint64, []>(64)))];
            tensor<fp16, [768]> const_1_to_fp16 = const()[name = tensor<string, []>("const_1_to_fp16"), val = tensor<fp16, [768]>(BLOBFILE(path = tensor<string, []>("@model_path/weights/weight.bin"), offset = tensor<uint64, []>(368768)))];
            tensor<fp16, [1, 80, 3000]> logmel_data_to_fp16 = cast(dtype = logmel_data_to_fp16_dtype_0, x = logmel_data)[name = tensor<string, []>("cast_49")];
            tensor<fp16, [1, 768, 3000]> var_44_cast_fp16 = conv(bias = const_1_to_fp16, dilations = var_44_dilations_0, groups = var_44_groups_0, pad = var_44_pad_0, pad_type = var_44_pad_type_0, strides = var_44_strides_0, weight = const_0_to_fp16, x = logmel_data_to_fp16)[name = tensor<string, []>("op_44_cast_fp16")];
            tensor<string, []> input_1_mode_0 = const()[name = tensor<string, []>("input_1_mode_0"), val = tensor<string, []>("EXACT")];
            tensor<fp16, [1, 768, 3000]> input_1_cast_fp16 = gelu(mode = input_1_mode_0, x = var_44_cast_fp16)[name = tensor<string, []>("input_1_cast_fp16")];
            tensor<string, []> var_62_pad_type_0 = const()[name = tensor<string, []>("op_62_pad_type_0"), val = tensor<string, []>("custom")];
            tensor<int32, [2]> var_62_pad_0 = const()[name = tensor<string, []>("op_62_pad_0"), val = tensor<int32, [2]>([1, 1])];
            tensor<int32, [1]> var_62_strides_0 = const()[name = tensor<string, []>("op_62_strides_0"), val = tensor<int32, [1]>([2])];
            tensor<int32, [1]> var_62_dilations_0 = const()[name = tensor<string, []>("op_62_dilations_0"), val = tensor<int32, [1]>([1])];
            tensor<int32, []> var_62_groups_0 = const()[name = tensor<string, []>("op_62_groups_0"), val = tensor<int32, []>(1)];
            tensor<fp16, [768, 768, 3]> const_2_to_fp16 = const()[name = tensor<string, []>("const_2_to_fp16"), val = tensor<fp16, [768, 768, 3]>(BLOBFILE(path = tensor<string, []>("@model_path/weights/weight.bin"), offset = tensor<uint64, []>(370368)))];
            tensor<fp16, [768]> const_3_to_fp16 = const()[name = tensor<string, []>("const_3_to_fp16"), val = tensor<fp16, [768]>(BLOBFILE(path = tensor<string, []>("@model_path/weights/weight.bin"), offset = tensor<uint64, []>(3909376)))];
            tensor<fp16, [1, 768, 1500]> var_62_cast_fp16 = conv(bias = const_3_to_fp16, dilations = var_62_dilations_0, groups = var_62_groups_0, pad = var_62_pad_0, pad_type = var_62_pad_type_0, strides = var_62_strides_0, weight = const_2_to_fp16, x = input_1_cast_fp16)[name = tensor<string, []>("op_62_cast_fp16")];
            tensor<string, []> x_3_mode_0 = const()[name = tensor<string, []>("x_3_mode_0"), val = tensor<string, []>("EXACT")];
            tensor<fp16, [1, 768, 1500]> x_3_cast_fp16 = gelu(mode = x_3_mode_0, x = var_62_cast_fp16)[name = tensor<string, []>("x_3_cast_fp16")];
            tensor<int32, [3]> var_68 = const()[name = tensor<string, []>("op_68"), val = tensor<int32, [3]>([0, 2, 1])];
            tensor<fp16, [1500, 768]> positional_embedding_to_fp16 = const()[name = tensor<string, []>("positional_embedding_to_fp16"), val = tensor<fp16, [1500, 768]>(BLOBFILE(path = tensor<string, []>("@model_path/weights/weight.bin"), offset = tensor<uint64, []>(3910976)))];
            tensor<fp16, [1, 1500, 768]> x_5_cast_fp16 = transpose(perm = var_68, x = x_3_cast_fp16)[name = tensor<string, []>("transpose_120")];
            tensor<fp16, [1, 1500, 768]> var_71_cast_fp16 = add(x = x_5_cast_fp16, y = positional_embedding_to_fp16)[name = tensor<string, []>("op_71_cast_fp16")];
            tensor<int32, [1]> var_99_axes_0 = const()[name = tensor<string, []>("op_99_axes_0"), val = tensor<int32, [1]>([-1])];
            tensor<fp16, [768]> blocks_0_attn_ln_weight_to_fp16 = const()[name = tensor<string, []>("blocks_0_attn_ln_weight_to_fp16"), val = tensor<fp16, [768]>(BLOBFILE(path = tensor<string, []>("@model_path/weights/weight.bin"), offset = tensor<uint64, []>(6215040)))];
            tensor<fp16, [768]> blocks_0_attn_ln_bias_to_fp16 = const()[name = tensor<string, []>("blocks_0_attn_ln_bias_to_fp16"), val = tensor<fp16, [768]>(BLOBFILE(path = tensor<string, []>("@model_path/weights/weight.bin"), offset = tensor<uint64, []>(6216640)))];
            tensor<fp16, []> var_89_to_fp16 = const()[name = tensor<string, []>("op_89_to_fp16"), val = tensor<fp16, []>(0x1.5p-17)];
            tensor<fp16, [1, 1500, 768]> var_99_cast_fp16 = layer_norm(axes = var_99_axes_0, beta = blocks_0_attn_ln_bias_to_fp16, epsilon = var_89_to_fp16, gamma = blocks_0_attn_ln_weight_to_fp16, x = var_71_cast_fp16)[name = tensor<string, []>("op_99_cast_fp16")];
            tensor<fp16, [768, 768]> const_4_to_fp16 = const()[name = tensor<string, []>("const_4_to_fp16"), val = tensor<fp16, [768, 768]>(BLOBFILE(path = tensor<string, []>("@model_path/weights/weight.bin"), offset = tensor<uint64, []>(6218240)))];
            tensor<fp16, [768]> const_5_to_fp16 = const()[name = tensor<string, []>("const_5_to_fp16"), val = tensor<fp16, [768]>(BLOBFILE(path = tensor<string, []>("@model_path/weights/weight.bin"), offset = tensor<uint64, []>(7397952)))];
            tensor<fp16, [1, 1500, 768]> linear_0_cast_fp16 = linear(bias = const_5_to_fp16, weight = const_4_to_fp16, x = var_99_cast_fp16)[name = tensor<string, []>("linear_0_cast_fp16")];
            tensor<fp16, [768, 768]> const_6_to_fp16 = const()[name = tensor<string, []>("const_6_to_fp16"), val = tensor<fp16, [768, 768]>(BLOBFILE(path = tensor<string, []>("@model_path/weights/weight.bin"), offset = tensor<uint64, []>(7399552)))];
            tensor<fp16, [768]> linear_1_bias_0_to_fp16 = const()[name = tensor<string, []>("linear_1_bias_0_to_fp16"), val = tensor<fp16, [768]>(BLOBFILE(path = tensor<string, []>("@model_path/weights/weight.bin"), offset = tensor<uint64, []>(8579264)))];
            tensor<fp16, [1, 1500, 768]> linear_1_cast_fp16 = linear(bias = linear_1_bias_0_to_fp16, weight = const_6_to_fp16, x = var_99_cast_fp16)[name = tensor<string, []>("linear_1_cast_fp16")];
            tensor<fp16, [768, 768]> const_7_to_fp16 = const()[name = tensor<string, []>("const_7_to_fp16"), val = tensor<fp16, [768, 768]>(BLOBFILE(path = tensor<string, []>("@model_path/weights/weight.bin"), offset = tensor<uint64, []>(8580864)))];
            tensor<fp16, [768]> const_8_to_fp16 = const()[name = tensor<string, []>("const_8_to_fp16"), val = tensor<fp16, [768]>(BLOBFILE(path = tensor<string, []>("@model_path/weights/weight.bin"), offset = tensor<uint64, []>(9760576)))];
            tensor<fp16, [1, 1500, 768]> linear_2_cast_fp16 = linear(bias = const_8_to_fp16, weight = const_7_to_fp16, x = var_99_cast_fp16)[name = tensor<string, []>("linear_2_cast_fp16")];
            tensor<int32, [4]> var_123 = const()[name = tensor<string, []>("op_123"), val = tensor<int32, [4]>([1, 1500, 12, -1])];
            tensor<fp16, [1, 1500, 12, 64]> var_124_cast_fp16 = reshape(shape = var_123, x = linear_0_cast_fp16)[name = tensor<string, []>("op_124_cast_fp16")];
            tensor<int32, [4]> var_129 = const()[name = tensor<string, []>("op_129"), val = tensor<int32, [4]>([1, 1500, 12, -1])];
            tensor<fp16, [1, 1500, 12, 64]> var_130_cast_fp16 = reshape(shape = var_129, x = linear_1_cast_fp16)[name = tensor<string, []>("op_130_cast_fp16")];
            tensor<int32, [4]> var_135 = const()[name = tensor<string, []>("op_135"), val = tensor<int32, [4]>([1, 1500, 12, -1])];
            tensor<fp16, [1, 1500, 12, 64]> var_136_cast_fp16 = reshape(shape = var_135, x = linear_2_cast_fp16)[name = tensor<string, []>("op_136_cast_fp16")];
            tensor<int32, [4]> var_137 = const()[name = tensor<string, []>("op_137"), val = tensor<int32, [4]>([0, 2, 1, 3])];
            tensor<fp16, []> mul_0_y_0_to_fp16 = const()[name = tensor<string, []>("mul_0_y_0_to_fp16"), val = tensor<fp16, []>(0x1p-3)];
            tensor<fp16, [1, 1500, 12, 64]> mul_0_cast_fp16 = mul(x = var_124_cast_fp16, y = mul_0_y_0_to_fp16)[name = tensor<string, []>("mul_0_cast_fp16")];
            tensor<bool, []> matmul_0_transpose_y_0 = const()[name = tensor<string, []>("matmul_0_transpose_y_0"), val = tensor<bool, []>(true)];
            tensor<bool, []> matmul_0_transpose_x_0 = const()[name = tensor<string, []>("matmul_0_transpose_x_0"), val = tensor<bool, []>(false)];
            tensor<int32, [4]> transpose_48_perm_0 = const()[name = tensor<string, []>("transpose_48_perm_0"), val = tensor<int32, [4]>([0, 2, -3, -1])];
            tensor<int32, [4]> transpose_49_perm_0 = const()[name = tensor<string, []>("transpose_49_perm_0"), val = tensor<int32, [4]>([0, 2, -3, -1])];
            tensor<fp16, [1, 12, 1500, 64]> transpose_49 = transpose(perm = transpose_49_perm_0, x = var_130_cast_fp16)[name = tensor<string, []>("transpose_117")];
            tensor<fp16, [1, 12, 1500, 64]> transpose_48 = transpose(perm = transpose_48_perm_0, x = mul_0_cast_fp16)[name = tensor<string, []>("transpose_118")];
            tensor<fp16, [1, 12, 1500, 1500]> matmul_0_cast_fp16 = matmul(transpose_x = matmul_0_transpose_x_0, transpose_y = matmul_0_transpose_y_0, x = transpose_48, y = transpose_49)[name = tensor<string, []>("matmul_0_cast_fp16")];
            tensor<int32, []> softmax_0_axis_0 = const()[name = tensor<string, []>("softmax_0_axis_0"), val = tensor<int32, []>(-1)];
            tensor<fp16, [1, 12, 1500, 1500]> softmax_0_cast_fp16 = softmax(axis = softmax_0_axis_0, x = matmul_0_cast_fp16)[name = tensor<string, []>("softmax_0_cast_fp16")];
            tensor<bool, []> a_1_transpose_x_0 = const()[name = tensor<string, []>("a_1_transpose_x_0"), val = tensor<bool, []>(false)];
            tensor<bool, []> a_1_transpose_y_0 = const()[name = tensor<string, []>("a_1_transpose_y_0"), val = tensor<bool, []>(false)];
            tensor<fp16, [1, 12, 1500, 64]> v_3_cast_fp16 = transpose(perm = var_137, x = var_136_cast_fp16)[name = tensor<string, []>("transpose_119")];
            tensor<fp16, [1, 12, 1500, 64]> a_1_cast_fp16 = matmul(transpose_x = a_1_transpose_x_0, transpose_y = a_1_transpose_y_0, x = softmax_0_cast_fp16, y = v_3_cast_fp16)[name = tensor<string, []>("a_1_cast_fp16")];
            tensor<int32, [4]> var_140 = const()[name = tensor<string, []>("op_140"), val = tensor<int32, [4]>([0, 2, 1, 3])];
            tensor<int32, [3]> concat_0 = const()[name = tensor<string, []>("concat_0"), val = tensor<int32, [3]>([1, 1500, 768])];
            tensor<fp16, [1, 1500, 12, 64]> var_141_cast_fp16 = transpose(perm = var_140, x = a_1_cast_fp16)[name = tensor<string, []>("transpose_116")];
            tensor<fp16, [1, 1500, 768]> x_11_cast_fp16 = reshape(shape = concat_0, x = var_141_cast_fp16)[name = tensor<string, []>("x_11_cast_fp16")];
            tensor<fp16, [768, 768]> const_15_to_fp16 = const()[name = tensor<string, []>("const_15_to_fp16"), val = tensor<fp16, [768, 768]>(BLOBFILE(path = tensor<string, []>("@model_path/weights/weight.bin"), offset = tensor<uint64, []>(9762176)))];
            tensor<fp16, [768]> const_16_to_fp16 = const()[name = tensor<string, []>("const_16_to_fp16"), val = tensor<fp16, [768]>(BLOBFILE(path = tensor<string, []>("@model_path/weights/weight.bin"), offset = tensor<uint64, []>(10941888)))];
            tensor<fp16, [1, 1500, 768]> linear_3_cast_fp16 = linear(bias = const_16_to_fp16, weight = const_15_to_fp16, x = x_11_cast_fp16)[name = tensor<string, []>("linear_3_cast_fp16")];
            tensor<fp16, [1, 1500, 768]> x_13_cast_fp16 = add(x = var_71_cast_fp16, y = linear_3_cast_fp16)[name = tensor<string, []>("x_13_cast_fp16")];
            tensor<int32, [1]> var_153_axes_0 = const()[name = tensor<string, []>("op_153_axes_0"), val = tensor<int32, [1]>([-1])];
            tensor<fp16, [768]> blocks_0_mlp_ln_weight_to_fp16 = const()[name = tensor<string, []>("blocks_0_mlp_ln_weight_to_fp16"), val = tensor<fp16, [768]>(BLOBFILE(path = tensor<string, []>("@model_path/weights/weight.bin"), offset = tensor<uint64, []>(10943488)))];
            tensor<fp16, [768]> blocks_0_mlp_ln_bias_to_fp16 = const()[name = tensor<string, []>("blocks_0_mlp_ln_bias_to_fp16"), val = tensor<fp16, [768]>(BLOBFILE(path = tensor<string, []>("@model_path/weights/weight.bin"), offset = tensor<uint64, []>(10945088)))];
            tensor<fp16, [1, 1500, 768]> var_153_cast_fp16 = layer_norm(axes = var_153_axes_0, beta = blocks_0_mlp_ln_bias_to_fp16, epsilon = var_89_to_fp16, gamma = blocks_0_mlp_ln_weight_to_fp16, x = x_13_cast_fp16)[name = tensor<string, []>("op_153_cast_fp16")];
            tensor<fp16, [3072, 768]> const_17_to_fp16 = const()[name = tensor<string, []>("const_17_to_fp16"), val = tensor<fp16, [3072, 768]>(BLOBFILE(path = tensor<string, []>("@model_path/weights/weight.bin"), offset = tensor<uint64, []>(10946688)))];
            tensor<fp16, [3072]> const_18_to_fp16 = const()[name = tensor<string, []>("const_18_to_fp16"), val = tensor<fp16, [3072]>(BLOBFILE(path = tensor<string, []>("@model_path/weights/weight.bin"), offset = tensor<uint64, []>(15665344)))];
            tensor<fp16, [1, 1500, 3072]> linear_4_cast_fp16 = linear(bias = const_18_to_fp16, weight = const_17_to_fp16, x = var_153_cast_fp16)[name = tensor<string, []>("linear_4_cast_fp16")];
            tensor<string, []> x_17_mode_0 = const()[name = tensor<string, []>("x_17_mode_0"), val = tensor<string, []>("EXACT")];
            tensor<fp16, [1, 1500, 3072]> x_17_cast_fp16 = gelu(mode = x_17_mode_0, x = linear_4_cast_fp16)[name = tensor<string, []>("x_17_cast_fp16")];
            tensor<fp16, [768, 3072]> const_19_to_fp16 = const()[name = tensor<string, []>("const_19_to_fp16"), val = tensor<fp16, [768, 3072]>(BLOBFILE(path = tensor<string, []>("@model_path/weights/weight.bin"), offset = tensor<uint64, []>(15671552)))];
            tensor<fp16, [768]> const_20_to_fp16 = const()[name = tensor<string, []>("const_20_to_fp16"), val = tensor<fp16, [768]>(BLOBFILE(path = tensor<string, []>("@model_path/weights/weight.bin"), offset = tensor<uint64, []>(20390208)))];
            tensor<fp16, [1, 1500, 768]> linear_5_cast_fp16 = linear(bias = const_20_to_fp16, weight = const_19_to_fp16, x = x_17_cast_fp16)[name = tensor<string, []>("linear_5_cast_fp16")];
            tensor<fp16, [1, 1500, 768]> x_19_cast_fp16 = add(x = x_13_cast_fp16, y = linear_5_cast_fp16)[name = tensor<string, []>("x_19_cast_fp16")];
            tensor<int32, [1]> var_194_axes_0 = const()[name = tensor<string, []>("op_194_axes_0"), val = tensor<int32, [1]>([-1])];
            tensor<fp16, [768]> blocks_1_attn_ln_weight_to_fp16 = const()[name = tensor<string, []>("blocks_1_attn_ln_weight_to_fp16"), val = tensor<fp16, [768]>(BLOBFILE(path = tensor<string, []>("@model_path/weights/weight.bin"), offset = tensor<uint64, []>(20391808)))];
            tensor<fp16, [768]> blocks_1_attn_ln_bias_to_fp16 = const()[name = tensor<string, []>("blocks_1_attn_ln_bias_to_fp16"), val = tensor<fp16, [768]>(BLOBFILE(path = tensor<string, []>("@model_path/weights/weight.bin"), offset = tensor<uint64, []>(20393408)))];
            tensor<fp16, []> var_184_to_fp16 = const()[name = tensor<string, []>("op_184_to_fp16"), val = tensor<fp16, []>(0x1.5p-17)];
            tensor<fp16, [1, 1500, 768]> var_194_cast_fp16 = layer_norm(axes = var_194_axes_0, beta = blocks_1_attn_ln_bias_to_fp16, epsilon = var_184_to_fp16, gamma = blocks_1_attn_ln_weight_to_fp16, x = x_19_cast_fp16)[name = tensor<string, []>("op_194_cast_fp16")];
            tensor<fp16, [768, 768]> const_21_to_fp16 = const()[name = tensor<string, []>("const_21_to_fp16"), val = tensor<fp16, [768, 768]>(BLOBFILE(path = tensor<string, []>("@model_path/weights/weight.bin"), offset = tensor<uint64, []>(20395008)))];
            tensor<fp16, [768]> const_22_to_fp16 = const()[name = tensor<string, []>("const_22_to_fp16"), val = tensor<fp16, [768]>(BLOBFILE(path = tensor<string, []>("@model_path/weights/weight.bin"), offset = tensor<uint64, []>(21574720)))];
            tensor<fp16, [1, 1500, 768]> linear_6_cast_fp16 = linear(bias = const_22_to_fp16, weight = const_21_to_fp16, x = var_194_cast_fp16)[name = tensor<string, []>("linear_6_cast_fp16")];
            tensor<fp16, [768, 768]> const_23_to_fp16 = const()[name = tensor<string, []>("const_23_to_fp16"), val = tensor<fp16, [768, 768]>(BLOBFILE(path = tensor<string, []>("@model_path/weights/weight.bin"), offset = tensor<uint64, []>(21576320)))];
            tensor<fp16, [1, 1500, 768]> linear_7_cast_fp16 = linear(bias = linear_1_bias_0_to_fp16, weight = const_23_to_fp16, x = var_194_cast_fp16)[name = tensor<string, []>("linear_7_cast_fp16")];
            tensor<fp16, [768, 768]> const_24_to_fp16 = const()[name = tensor<string, []>("const_24_to_fp16"), val = tensor<fp16, [768, 768]>(BLOBFILE(path = tensor<string, []>("@model_path/weights/weight.bin"), offset = tensor<uint64, []>(22756032)))];
            tensor<fp16, [768]> const_25_to_fp16 = const()[name = tensor<string, []>("const_25_to_fp16"), val = tensor<fp16, [768]>(BLOBFILE(path = tensor<string, []>("@model_path/weights/weight.bin"), offset = tensor<uint64, []>(23935744)))];
            tensor<fp16, [1, 1500, 768]> linear_8_cast_fp16 = linear(bias = const_25_to_fp16, weight = const_24_to_fp16, x = var_194_cast_fp16)[name = tensor<string, []>("linear_8_cast_fp16")];
            tensor<int32, [4]> var_218 = const()[name = tensor<string, []>("op_218"), val = tensor<int32, [4]>([1, 1500, 12, -1])];
            tensor<fp16, [1, 1500, 12, 64]> var_219_cast_fp16 = reshape(shape = var_218, x = linear_6_cast_fp16)[name = tensor<string, []>("op_219_cast_fp16")];
            tensor<int32, [4]> var_224 = const()[name = tensor<string, []>("op_224"), val = tensor<int32, [4]>([1, 1500, 12, -1])];
            tensor<fp16, [1, 1500, 12, 64]> var_225_cast_fp16 = reshape(shape = var_224, x = linear_7_cast_fp16)[name = tensor<string, []>("op_225_cast_fp16")];
            tensor<int32, [4]> var_230 = const()[name = tensor<string, []>("op_230"), val = tensor<int32, [4]>([1, 1500, 12, -1])];
            tensor<fp16, [1, 1500, 12, 64]> var_231_cast_fp16 = reshape(shape = var_230, x = linear_8_cast_fp16)[name = tensor<string, []>("op_231_cast_fp16")];
            tensor<int32, [4]> var_232 = const()[name = tensor<string, []>("op_232"), val = tensor<int32, [4]>([0, 2, 1, 3])];
            tensor<fp16, []> mul_1_y_0_to_fp16 = const()[name = tensor<string, []>("mul_1_y_0_to_fp16"), val = tensor<fp16, []>(0x1p-3)];
            tensor<fp16, [1, 1500, 12, 64]> mul_1_cast_fp16 = mul(x = var_219_cast_fp16, y = mul_1_y_0_to_fp16)[name = tensor<string, []>("mul_1_cast_fp16")];
            tensor<bool, []> matmul_1_transpose_y_0 = const()[name = tensor<string, []>("matmul_1_transpose_y_0"), val = tensor<bool, []>(true)];
            tensor<bool, []> matmul_1_transpose_x_0 = const()[name = tensor<string, []>("matmul_1_transpose_x_0"), val = tensor<bool, []>(false)];
            tensor<int32, [4]> transpose_50_perm_0 = const()[name = tensor<string, []>("transpose_50_perm_0"), val = tensor<int32, [4]>([0, 2, -3, -1])];
            tensor<int32, [4]> transpose_51_perm_0 = const()[name = tensor<string, []>("transpose_51_perm_0"), val = tensor<int32, [4]>([0, 2, -3, -1])];
            tensor<fp16, [1, 12, 1500, 64]> transpose_51 = transpose(perm = transpose_51_perm_0, x = var_225_cast_fp16)[name = tensor<string, []>("transpose_113")];
            tensor<fp16, [1, 12, 1500, 64]> transpose_50 = transpose(perm = transpose_50_perm_0, x = mul_1_cast_fp16)[name = tensor<string, []>("transpose_114")];
            tensor<fp16, [1, 12, 1500, 1500]> matmul_1_cast_fp16 = matmul(transpose_x = matmul_1_transpose_x_0, transpose_y = matmul_1_transpose_y_0, x = transpose_50, y = transpose_51)[name = tensor<string, []>("matmul_1_cast_fp16")];
            tensor<int32, []> softmax_1_axis_0 = const()[name = tensor<string, []>("softmax_1_axis_0"), val = tensor<int32, []>(-1)];
            tensor<fp16, [1, 12, 1500, 1500]> softmax_1_cast_fp16 = softmax(axis = softmax_1_axis_0, x = matmul_1_cast_fp16)[name = tensor<string, []>("softmax_1_cast_fp16")];
            tensor<bool, []> a_3_transpose_x_0 = const()[name = tensor<string, []>("a_3_transpose_x_0"), val = tensor<bool, []>(false)];
            tensor<bool, []> a_3_transpose_y_0 = const()[name = tensor<string, []>("a_3_transpose_y_0"), val = tensor<bool, []>(false)];
            tensor<fp16, [1, 12, 1500, 64]> v_7_cast_fp16 = transpose(perm = var_232, x = var_231_cast_fp16)[name = tensor<string, []>("transpose_115")];
            tensor<fp16, [1, 12, 1500, 64]> a_3_cast_fp16 = matmul(transpose_x = a_3_transpose_x_0, transpose_y = a_3_transpose_y_0, x = softmax_1_cast_fp16, y = v_7_cast_fp16)[name = tensor<string, []>("a_3_cast_fp16")];
            tensor<int32, [4]> var_235 = const()[name = tensor<string, []>("op_235"), val = tensor<int32, [4]>([0, 2, 1, 3])];
            tensor<int32, [3]> concat_1 = const()[name = tensor<string, []>("concat_1"), val = tensor<int32, [3]>([1, 1500, 768])];
            tensor<fp16, [1, 1500, 12, 64]> var_236_cast_fp16 = transpose(perm = var_235, x = a_3_cast_fp16)[name = tensor<string, []>("transpose_112")];
            tensor<fp16, [1, 1500, 768]> x_23_cast_fp16 = reshape(shape = concat_1, x = var_236_cast_fp16)[name = tensor<string, []>("x_23_cast_fp16")];
            tensor<fp16, [768, 768]> const_32_to_fp16 = const()[name = tensor<string, []>("const_32_to_fp16"), val = tensor<fp16, [768, 768]>(BLOBFILE(path = tensor<string, []>("@model_path/weights/weight.bin"), offset = tensor<uint64, []>(23937344)))];
            tensor<fp16, [768]> const_33_to_fp16 = const()[name = tensor<string, []>("const_33_to_fp16"), val = tensor<fp16, [768]>(BLOBFILE(path = tensor<string, []>("@model_path/weights/weight.bin"), offset = tensor<uint64, []>(25117056)))];
            tensor<fp16, [1, 1500, 768]> linear_9_cast_fp16 = linear(bias = const_33_to_fp16, weight = const_32_to_fp16, x = x_23_cast_fp16)[name = tensor<string, []>("linear_9_cast_fp16")];
            tensor<fp16, [1, 1500, 768]> x_25_cast_fp16 = add(x = x_19_cast_fp16, y = linear_9_cast_fp16)[name = tensor<string, []>("x_25_cast_fp16")];
            tensor<int32, [1]> var_248_axes_0 = const()[name = tensor<string, []>("op_248_axes_0"), val = tensor<int32, [1]>([-1])];
            tensor<fp16, [768]> blocks_1_mlp_ln_weight_to_fp16 = const()[name = tensor<string, []>("blocks_1_mlp_ln_weight_to_fp16"), val = tensor<fp16, [768]>(BLOBFILE(path = tensor<string, []>("@model_path/weights/weight.bin"), offset = tensor<uint64, []>(25118656)))];
            tensor<fp16, [768]> blocks_1_mlp_ln_bias_to_fp16 = const()[name = tensor<string, []>("blocks_1_mlp_ln_bias_to_fp16"), val = tensor<fp16, [768]>(BLOBFILE(path = tensor<string, []>("@model_path/weights/weight.bin"), offset = tensor<uint64, []>(25120256)))];
            tensor<fp16, [1, 1500, 768]> var_248_cast_fp16 = layer_norm(axes = var_248_axes_0, beta = blocks_1_mlp_ln_bias_to_fp16, epsilon = var_184_to_fp16, gamma = blocks_1_mlp_ln_weight_to_fp16, x = x_25_cast_fp16)[name = tensor<string, []>("op_248_cast_fp16")];
            tensor<fp16, [3072, 768]> const_34_to_fp16 = const()[name = tensor<string, []>("const_34_to_fp16"), val = tensor<fp16, [3072, 768]>(BLOBFILE(path = tensor<string, []>("@model_path/weights/weight.bin"), offset = tensor<uint64, []>(25121856)))];
            tensor<fp16, [3072]> const_35_to_fp16 = const()[name = tensor<string, []>("const_35_to_fp16"), val = tensor<fp16, [3072]>(BLOBFILE(path = tensor<string, []>("@model_path/weights/weight.bin"), offset = tensor<uint64, []>(29840512)))];
            tensor<fp16, [1, 1500, 3072]> linear_10_cast_fp16 = linear(bias = const_35_to_fp16, weight = const_34_to_fp16, x = var_248_cast_fp16)[name = tensor<string, []>("linear_10_cast_fp16")];
            tensor<string, []> x_29_mode_0 = const()[name = tensor<string, []>("x_29_mode_0"), val = tensor<string, []>("EXACT")];
            tensor<fp16, [1, 1500, 3072]> x_29_cast_fp16 = gelu(mode = x_29_mode_0, x = linear_10_cast_fp16)[name = tensor<string, []>("x_29_cast_fp16")];
            tensor<fp16, [768, 3072]> const_36_to_fp16 = const()[name = tensor<string, []>("const_36_to_fp16"), val = tensor<fp16, [768, 3072]>(BLOBFILE(path = tensor<string, []>("@model_path/weights/weight.bin"), offset = tensor<uint64, []>(29846720)))];
            tensor<fp16, [768]> const_37_to_fp16 = const()[name = tensor<string, []>("const_37_to_fp16"), val = tensor<fp16, [768]>(BLOBFILE(path = tensor<string, []>("@model_path/weights/weight.bin"), offset = tensor<uint64, []>(34565376)))];
            tensor<fp16, [1, 1500, 768]> linear_11_cast_fp16 = linear(bias = const_37_to_fp16, weight = const_36_to_fp16, x = x_29_cast_fp16)[name = tensor<string, []>("linear_11_cast_fp16")];
            tensor<fp16, [1, 1500, 768]> x_31_cast_fp16 = add(x = x_25_cast_fp16, y = linear_11_cast_fp16)[name = tensor<string, []>("x_31_cast_fp16")];
            tensor<int32, [1]> var_289_axes_0 = const()[name = tensor<string, []>("op_289_axes_0"), val = tensor<int32, [1]>([-1])];
            tensor<fp16, [768]> blocks_2_attn_ln_weight_to_fp16 = const()[name = tensor<string, []>("blocks_2_attn_ln_weight_to_fp16"), val = tensor<fp16, [768]>(BLOBFILE(path = tensor<string, []>("@model_path/weights/weight.bin"), offset = tensor<uint64, []>(34566976)))];
            tensor<fp16, [768]> blocks_2_attn_ln_bias_to_fp16 = const()[name = tensor<string, []>("blocks_2_attn_ln_bias_to_fp16"), val = tensor<fp16, [768]>(BLOBFILE(path = tensor<string, []>("@model_path/weights/weight.bin"), offset = tensor<uint64, []>(34568576)))];
            tensor<fp16, []> var_279_to_fp16 = const()[name = tensor<string, []>("op_279_to_fp16"), val = tensor<fp16, []>(0x1.5p-17)];
            tensor<fp16, [1, 1500, 768]> var_289_cast_fp16 = layer_norm(axes = var_289_axes_0, beta = blocks_2_attn_ln_bias_to_fp16, epsilon = var_279_to_fp16, gamma = blocks_2_attn_ln_weight_to_fp16, x = x_31_cast_fp16)[name = tensor<string, []>("op_289_cast_fp16")];
            tensor<fp16, [768, 768]> const_38_to_fp16 = const()[name = tensor<string, []>("const_38_to_fp16"), val = tensor<fp16, [768, 768]>(BLOBFILE(path = tensor<string, []>("@model_path/weights/weight.bin"), offset = tensor<uint64, []>(34570176)))];
            tensor<fp16, [768]> const_39_to_fp16 = const()[name = tensor<string, []>("const_39_to_fp16"), val = tensor<fp16, [768]>(BLOBFILE(path = tensor<string, []>("@model_path/weights/weight.bin"), offset = tensor<uint64, []>(35749888)))];
            tensor<fp16, [1, 1500, 768]> linear_12_cast_fp16 = linear(bias = const_39_to_fp16, weight = const_38_to_fp16, x = var_289_cast_fp16)[name = tensor<string, []>("linear_12_cast_fp16")];
            tensor<fp16, [768, 768]> const_40_to_fp16 = const()[name = tensor<string, []>("const_40_to_fp16"), val = tensor<fp16, [768, 768]>(BLOBFILE(path = tensor<string, []>("@model_path/weights/weight.bin"), offset = tensor<uint64, []>(35751488)))];
            tensor<fp16, [1, 1500, 768]> linear_13_cast_fp16 = linear(bias = linear_1_bias_0_to_fp16, weight = const_40_to_fp16, x = var_289_cast_fp16)[name = tensor<string, []>("linear_13_cast_fp16")];
            tensor<fp16, [768, 768]> const_41_to_fp16 = const()[name = tensor<string, []>("const_41_to_fp16"), val = tensor<fp16, [768, 768]>(BLOBFILE(path = tensor<string, []>("@model_path/weights/weight.bin"), offset = tensor<uint64, []>(36931200)))];
            tensor<fp16, [768]> const_42_to_fp16 = const()[name = tensor<string, []>("const_42_to_fp16"), val = tensor<fp16, [768]>(BLOBFILE(path = tensor<string, []>("@model_path/weights/weight.bin"), offset = tensor<uint64, []>(38110912)))];
            tensor<fp16, [1, 1500, 768]> linear_14_cast_fp16 = linear(bias = const_42_to_fp16, weight = const_41_to_fp16, x = var_289_cast_fp16)[name = tensor<string, []>("linear_14_cast_fp16")];
            tensor<int32, [4]> var_313 = const()[name = tensor<string, []>("op_313"), val = tensor<int32, [4]>([1, 1500, 12, -1])];
            tensor<fp16, [1, 1500, 12, 64]> var_314_cast_fp16 = reshape(shape = var_313, x = linear_12_cast_fp16)[name = tensor<string, []>("op_314_cast_fp16")];
            tensor<int32, [4]> var_319 = const()[name = tensor<string, []>("op_319"), val = tensor<int32, [4]>([1, 1500, 12, -1])];
            tensor<fp16, [1, 1500, 12, 64]> var_320_cast_fp16 = reshape(shape = var_319, x = linear_13_cast_fp16)[name = tensor<string, []>("op_320_cast_fp16")];
            tensor<int32, [4]> var_325 = const()[name = tensor<string, []>("op_325"), val = tensor<int32, [4]>([1, 1500, 12, -1])];
            tensor<fp16, [1, 1500, 12, 64]> var_326_cast_fp16 = reshape(shape = var_325, x = linear_14_cast_fp16)[name = tensor<string, []>("op_326_cast_fp16")];
            tensor<int32, [4]> var_327 = const()[name = tensor<string, []>("op_327"), val = tensor<int32, [4]>([0, 2, 1, 3])];
            tensor<fp16, []> mul_2_y_0_to_fp16 = const()[name = tensor<string, []>("mul_2_y_0_to_fp16"), val = tensor<fp16, []>(0x1p-3)];
            tensor<fp16, [1, 1500, 12, 64]> mul_2_cast_fp16 = mul(x = var_314_cast_fp16, y = mul_2_y_0_to_fp16)[name = tensor<string, []>("mul_2_cast_fp16")];
            tensor<bool, []> matmul_2_transpose_y_0 = const()[name = tensor<string, []>("matmul_2_transpose_y_0"), val = tensor<bool, []>(true)];
            tensor<bool, []> matmul_2_transpose_x_0 = const()[name = tensor<string, []>("matmul_2_transpose_x_0"), val = tensor<bool, []>(false)];
            tensor<int32, [4]> transpose_52_perm_0 = const()[name = tensor<string, []>("transpose_52_perm_0"), val = tensor<int32, [4]>([0, 2, -3, -1])];
            tensor<int32, [4]> transpose_53_perm_0 = const()[name = tensor<string, []>("transpose_53_perm_0"), val = tensor<int32, [4]>([0, 2, -3, -1])];
            tensor<fp16, [1, 12, 1500, 64]> transpose_53 = transpose(perm = transpose_53_perm_0, x = var_320_cast_fp16)[name = tensor<string, []>("transpose_109")];
            tensor<fp16, [1, 12, 1500, 64]> transpose_52 = transpose(perm = transpose_52_perm_0, x = mul_2_cast_fp16)[name = tensor<string, []>("transpose_110")];
            tensor<fp16, [1, 12, 1500, 1500]> matmul_2_cast_fp16 = matmul(transpose_x = matmul_2_transpose_x_0, transpose_y = matmul_2_transpose_y_0, x = transpose_52, y = transpose_53)[name = tensor<string, []>("matmul_2_cast_fp16")];
            tensor<int32, []> softmax_2_axis_0 = const()[name = tensor<string, []>("softmax_2_axis_0"), val = tensor<int32, []>(-1)];
            tensor<fp16, [1, 12, 1500, 1500]> softmax_2_cast_fp16 = softmax(axis = softmax_2_axis_0, x = matmul_2_cast_fp16)[name = tensor<string, []>("softmax_2_cast_fp16")];
            tensor<bool, []> a_5_transpose_x_0 = const()[name = tensor<string, []>("a_5_transpose_x_0"), val = tensor<bool, []>(false)];
            tensor<bool, []> a_5_transpose_y_0 = const()[name = tensor<string, []>("a_5_transpose_y_0"), val = tensor<bool, []>(false)];
            tensor<fp16, [1, 12, 1500, 64]> v_11_cast_fp16 = transpose(perm = var_327, x = var_326_cast_fp16)[name = tensor<string, []>("transpose_111")];
            tensor<fp16, [1, 12, 1500, 64]> a_5_cast_fp16 = matmul(transpose_x = a_5_transpose_x_0, transpose_y = a_5_transpose_y_0, x = softmax_2_cast_fp16, y = v_11_cast_fp16)[name = tensor<string, []>("a_5_cast_fp16")];
            tensor<int32, [4]> var_330 = const()[name = tensor<string, []>("op_330"), val = tensor<int32, [4]>([0, 2, 1, 3])];
            tensor<int32, [3]> concat_2 = const()[name = tensor<string, []>("concat_2"), val = tensor<int32, [3]>([1, 1500, 768])];
            tensor<fp16, [1, 1500, 12, 64]> var_331_cast_fp16 = transpose(perm = var_330, x = a_5_cast_fp16)[name = tensor<string, []>("transpose_108")];
            tensor<fp16, [1, 1500, 768]> x_35_cast_fp16 = reshape(shape = concat_2, x = var_331_cast_fp16)[name = tensor<string, []>("x_35_cast_fp16")];
            tensor<fp16, [768, 768]> const_49_to_fp16 = const()[name = tensor<string, []>("const_49_to_fp16"), val = tensor<fp16, [768, 768]>(BLOBFILE(path = tensor<string, []>("@model_path/weights/weight.bin"), offset = tensor<uint64, []>(38112512)))];
            tensor<fp16, [768]> const_50_to_fp16 = const()[name = tensor<string, []>("const_50_to_fp16"), val = tensor<fp16, [768]>(BLOBFILE(path = tensor<string, []>("@model_path/weights/weight.bin"), offset = tensor<uint64, []>(39292224)))];
            tensor<fp16, [1, 1500, 768]> linear_15_cast_fp16 = linear(bias = const_50_to_fp16, weight = const_49_to_fp16, x = x_35_cast_fp16)[name = tensor<string, []>("linear_15_cast_fp16")];
            tensor<fp16, [1, 1500, 768]> x_37_cast_fp16 = add(x = x_31_cast_fp16, y = linear_15_cast_fp16)[name = tensor<string, []>("x_37_cast_fp16")];
            tensor<int32, [1]> var_343_axes_0 = const()[name = tensor<string, []>("op_343_axes_0"), val = tensor<int32, [1]>([-1])];
            tensor<fp16, [768]> blocks_2_mlp_ln_weight_to_fp16 = const()[name = tensor<string, []>("blocks_2_mlp_ln_weight_to_fp16"), val = tensor<fp16, [768]>(BLOBFILE(path = tensor<string, []>("@model_path/weights/weight.bin"), offset = tensor<uint64, []>(39293824)))];
            tensor<fp16, [768]> blocks_2_mlp_ln_bias_to_fp16 = const()[name = tensor<string, []>("blocks_2_mlp_ln_bias_to_fp16"), val = tensor<fp16, [768]>(BLOBFILE(path = tensor<string, []>("@model_path/weights/weight.bin"), offset = tensor<uint64, []>(39295424)))];
            tensor<fp16, [1, 1500, 768]> var_343_cast_fp16 = layer_norm(axes = var_343_axes_0, beta = blocks_2_mlp_ln_bias_to_fp16, epsilon = var_279_to_fp16, gamma = blocks_2_mlp_ln_weight_to_fp16, x = x_37_cast_fp16)[name = tensor<string, []>("op_343_cast_fp16")];
            tensor<fp16, [3072, 768]> const_51_to_fp16 = const()[name = tensor<string, []>("const_51_to_fp16"), val = tensor<fp16, [3072, 768]>(BLOBFILE(path = tensor<string, []>("@model_path/weights/weight.bin"), offset = tensor<uint64, []>(39297024)))];
            tensor<fp16, [3072]> const_52_to_fp16 = const()[name = tensor<string, []>("const_52_to_fp16"), val = tensor<fp16, [3072]>(BLOBFILE(path = tensor<string, []>("@model_path/weights/weight.bin"), offset = tensor<uint64, []>(44015680)))];
            tensor<fp16, [1, 1500, 3072]> linear_16_cast_fp16 = linear(bias = const_52_to_fp16, weight = const_51_to_fp16, x = var_343_cast_fp16)[name = tensor<string, []>("linear_16_cast_fp16")];
            tensor<string, []> x_41_mode_0 = const()[name = tensor<string, []>("x_41_mode_0"), val = tensor<string, []>("EXACT")];
            tensor<fp16, [1, 1500, 3072]> x_41_cast_fp16 = gelu(mode = x_41_mode_0, x = linear_16_cast_fp16)[name = tensor<string, []>("x_41_cast_fp16")];
            tensor<fp16, [768, 3072]> const_53_to_fp16 = const()[name = tensor<string, []>("const_53_to_fp16"), val = tensor<fp16, [768, 3072]>(BLOBFILE(path = tensor<string, []>("@model_path/weights/weight.bin"), offset = tensor<uint64, []>(44021888)))];
            tensor<fp16, [768]> const_54_to_fp16 = const()[name = tensor<string, []>("const_54_to_fp16"), val = tensor<fp16, [768]>(BLOBFILE(path = tensor<string, []>("@model_path/weights/weight.bin"), offset = tensor<uint64, []>(48740544)))];
            tensor<fp16, [1, 1500, 768]> linear_17_cast_fp16 = linear(bias = const_54_to_fp16, weight = const_53_to_fp16, x = x_41_cast_fp16)[name = tensor<string, []>("linear_17_cast_fp16")];
            tensor<fp16, [1, 1500, 768]> x_43_cast_fp16 = add(x = x_37_cast_fp16, y = linear_17_cast_fp16)[name = tensor<string, []>("x_43_cast_fp16")];
            tensor<int32, [1]> var_384_axes_0 = const()[name = tensor<string, []>("op_384_axes_0"), val = tensor<int32, [1]>([-1])];
            tensor<fp16, [768]> blocks_3_attn_ln_weight_to_fp16 = const()[name = tensor<string, []>("blocks_3_attn_ln_weight_to_fp16"), val = tensor<fp16, [768]>(BLOBFILE(path = tensor<string, []>("@model_path/weights/weight.bin"), offset = tensor<uint64, []>(48742144)))];
            tensor<fp16, [768]> blocks_3_attn_ln_bias_to_fp16 = const()[name = tensor<string, []>("blocks_3_attn_ln_bias_to_fp16"), val = tensor<fp16, [768]>(BLOBFILE(path = tensor<string, []>("@model_path/weights/weight.bin"), offset = tensor<uint64, []>(48743744)))];
            tensor<fp16, []> var_374_to_fp16 = const()[name = tensor<string, []>("op_374_to_fp16"), val = tensor<fp16, []>(0x1.5p-17)];
            tensor<fp16, [1, 1500, 768]> var_384_cast_fp16 = layer_norm(axes = var_384_axes_0, beta = blocks_3_attn_ln_bias_to_fp16, epsilon = var_374_to_fp16, gamma = blocks_3_attn_ln_weight_to_fp16, x = x_43_cast_fp16)[name = tensor<string, []>("op_384_cast_fp16")];
            tensor<fp16, [768, 768]> const_55_to_fp16 = const()[name = tensor<string, []>("const_55_to_fp16"), val = tensor<fp16, [768, 768]>(BLOBFILE(path = tensor<string, []>("@model_path/weights/weight.bin"), offset = tensor<uint64, []>(48745344)))];
            tensor<fp16, [768]> const_56_to_fp16 = const()[name = tensor<string, []>("const_56_to_fp16"), val = tensor<fp16, [768]>(BLOBFILE(path = tensor<string, []>("@model_path/weights/weight.bin"), offset = tensor<uint64, []>(49925056)))];
            tensor<fp16, [1, 1500, 768]> linear_18_cast_fp16 = linear(bias = const_56_to_fp16, weight = const_55_to_fp16, x = var_384_cast_fp16)[name = tensor<string, []>("linear_18_cast_fp16")];
            tensor<fp16, [768, 768]> const_57_to_fp16 = const()[name = tensor<string, []>("const_57_to_fp16"), val = tensor<fp16, [768, 768]>(BLOBFILE(path = tensor<string, []>("@model_path/weights/weight.bin"), offset = tensor<uint64, []>(49926656)))];
            tensor<fp16, [1, 1500, 768]> linear_19_cast_fp16 = linear(bias = linear_1_bias_0_to_fp16, weight = const_57_to_fp16, x = var_384_cast_fp16)[name = tensor<string, []>("linear_19_cast_fp16")];
            tensor<fp16, [768, 768]> const_58_to_fp16 = const()[name = tensor<string, []>("const_58_to_fp16"), val = tensor<fp16, [768, 768]>(BLOBFILE(path = tensor<string, []>("@model_path/weights/weight.bin"), offset = tensor<uint64, []>(51106368)))];
            tensor<fp16, [768]> const_59_to_fp16 = const()[name = tensor<string, []>("const_59_to_fp16"), val = tensor<fp16, [768]>(BLOBFILE(path = tensor<string, []>("@model_path/weights/weight.bin"), offset = tensor<uint64, []>(52286080)))];
            tensor<fp16, [1, 1500, 768]> linear_20_cast_fp16 = linear(bias = const_59_to_fp16, weight = const_58_to_fp16, x = var_384_cast_fp16)[name = tensor<string, []>("linear_20_cast_fp16")];
            tensor<int32, [4]> var_408 = const()[name = tensor<string, []>("op_408"), val = tensor<int32, [4]>([1, 1500, 12, -1])];
            tensor<fp16, [1, 1500, 12, 64]> var_409_cast_fp16 = reshape(shape = var_408, x = linear_18_cast_fp16)[name = tensor<string, []>("op_409_cast_fp16")];
            tensor<int32, [4]> var_414 = const()[name = tensor<string, []>("op_414"), val = tensor<int32, [4]>([1, 1500, 12, -1])];
            tensor<fp16, [1, 1500, 12, 64]> var_415_cast_fp16 = reshape(shape = var_414, x = linear_19_cast_fp16)[name = tensor<string, []>("op_415_cast_fp16")];
            tensor<int32, [4]> var_420 = const()[name = tensor<string, []>("op_420"), val = tensor<int32, [4]>([1, 1500, 12, -1])];
            tensor<fp16, [1, 1500, 12, 64]> var_421_cast_fp16 = reshape(shape = var_420, x = linear_20_cast_fp16)[name = tensor<string, []>("op_421_cast_fp16")];
            tensor<int32, [4]> var_422 = const()[name = tensor<string, []>("op_422"), val = tensor<int32, [4]>([0, 2, 1, 3])];
            tensor<fp16, []> mul_3_y_0_to_fp16 = const()[name = tensor<string, []>("mul_3_y_0_to_fp16"), val = tensor<fp16, []>(0x1p-3)];
            tensor<fp16, [1, 1500, 12, 64]> mul_3_cast_fp16 = mul(x = var_409_cast_fp16, y = mul_3_y_0_to_fp16)[name = tensor<string, []>("mul_3_cast_fp16")];
            tensor<bool, []> matmul_3_transpose_y_0 = const()[name = tensor<string, []>("matmul_3_transpose_y_0"), val = tensor<bool, []>(true)];
            tensor<bool, []> matmul_3_transpose_x_0 = const()[name = tensor<string, []>("matmul_3_transpose_x_0"), val = tensor<bool, []>(false)];
            tensor<int32, [4]> transpose_54_perm_0 = const()[name = tensor<string, []>("transpose_54_perm_0"), val = tensor<int32, [4]>([0, 2, -3, -1])];
            tensor<int32, [4]> transpose_55_perm_0 = const()[name = tensor<string, []>("transpose_55_perm_0"), val = tensor<int32, [4]>([0, 2, -3, -1])];
            tensor<fp16, [1, 12, 1500, 64]> transpose_55 = transpose(perm = transpose_55_perm_0, x = var_415_cast_fp16)[name = tensor<string, []>("transpose_105")];
            tensor<fp16, [1, 12, 1500, 64]> transpose_54 = transpose(perm = transpose_54_perm_0, x = mul_3_cast_fp16)[name = tensor<string, []>("transpose_106")];
            tensor<fp16, [1, 12, 1500, 1500]> matmul_3_cast_fp16 = matmul(transpose_x = matmul_3_transpose_x_0, transpose_y = matmul_3_transpose_y_0, x = transpose_54, y = transpose_55)[name = tensor<string, []>("matmul_3_cast_fp16")];
            tensor<int32, []> softmax_3_axis_0 = const()[name = tensor<string, []>("softmax_3_axis_0"), val = tensor<int32, []>(-1)];
            tensor<fp16, [1, 12, 1500, 1500]> softmax_3_cast_fp16 = softmax(axis = softmax_3_axis_0, x = matmul_3_cast_fp16)[name = tensor<string, []>("softmax_3_cast_fp16")];
            tensor<bool, []> a_7_transpose_x_0 = const()[name = tensor<string, []>("a_7_transpose_x_0"), val = tensor<bool, []>(false)];
            tensor<bool, []> a_7_transpose_y_0 = const()[name = tensor<string, []>("a_7_transpose_y_0"), val = tensor<bool, []>(false)];
            tensor<fp16, [1, 12, 1500, 64]> v_15_cast_fp16 = transpose(perm = var_422, x = var_421_cast_fp16)[name = tensor<string, []>("transpose_107")];
            tensor<fp16, [1, 12, 1500, 64]> a_7_cast_fp16 = matmul(transpose_x = a_7_transpose_x_0, transpose_y = a_7_transpose_y_0, x = softmax_3_cast_fp16, y = v_15_cast_fp16)[name = tensor<string, []>("a_7_cast_fp16")];
            tensor<int32, [4]> var_425 = const()[name = tensor<string, []>("op_425"), val = tensor<int32, [4]>([0, 2, 1, 3])];
            tensor<int32, [3]> concat_3 = const()[name = tensor<string, []>("concat_3"), val = tensor<int32, [3]>([1, 1500, 768])];
            tensor<fp16, [1, 1500, 12, 64]> var_426_cast_fp16 = transpose(perm = var_425, x = a_7_cast_fp16)[name = tensor<string, []>("transpose_104")];
            tensor<fp16, [1, 1500, 768]> x_47_cast_fp16 = reshape(shape = concat_3, x = var_426_cast_fp16)[name = tensor<string, []>("x_47_cast_fp16")];
            tensor<fp16, [768, 768]> const_66_to_fp16 = const()[name = tensor<string, []>("const_66_to_fp16"), val = tensor<fp16, [768, 768]>(BLOBFILE(path = tensor<string, []>("@model_path/weights/weight.bin"), offset = tensor<uint64, []>(52287680)))];
            tensor<fp16, [768]> const_67_to_fp16 = const()[name = tensor<string, []>("const_67_to_fp16"), val = tensor<fp16, [768]>(BLOBFILE(path = tensor<string, []>("@model_path/weights/weight.bin"), offset = tensor<uint64, []>(53467392)))];
            tensor<fp16, [1, 1500, 768]> linear_21_cast_fp16 = linear(bias = const_67_to_fp16, weight = const_66_to_fp16, x = x_47_cast_fp16)[name = tensor<string, []>("linear_21_cast_fp16")];
            tensor<fp16, [1, 1500, 768]> x_49_cast_fp16 = add(x = x_43_cast_fp16, y = linear_21_cast_fp16)[name = tensor<string, []>("x_49_cast_fp16")];
            tensor<int32, [1]> var_438_axes_0 = const()[name = tensor<string, []>("op_438_axes_0"), val = tensor<int32, [1]>([-1])];
            tensor<fp16, [768]> blocks_3_mlp_ln_weight_to_fp16 = const()[name = tensor<string, []>("blocks_3_mlp_ln_weight_to_fp16"), val = tensor<fp16, [768]>(BLOBFILE(path = tensor<string, []>("@model_path/weights/weight.bin"), offset = tensor<uint64, []>(53468992)))];
            tensor<fp16, [768]> blocks_3_mlp_ln_bias_to_fp16 = const()[name = tensor<string, []>("blocks_3_mlp_ln_bias_to_fp16"), val = tensor<fp16, [768]>(BLOBFILE(path = tensor<string, []>("@model_path/weights/weight.bin"), offset = tensor<uint64, []>(53470592)))];
            tensor<fp16, [1, 1500, 768]> var_438_cast_fp16 = layer_norm(axes = var_438_axes_0, beta = blocks_3_mlp_ln_bias_to_fp16, epsilon = var_374_to_fp16, gamma = blocks_3_mlp_ln_weight_to_fp16, x = x_49_cast_fp16)[name = tensor<string, []>("op_438_cast_fp16")];
            tensor<fp16, [3072, 768]> const_68_to_fp16 = const()[name = tensor<string, []>("const_68_to_fp16"), val = tensor<fp16, [3072, 768]>(BLOBFILE(path = tensor<string, []>("@model_path/weights/weight.bin"), offset = tensor<uint64, []>(53472192)))];
            tensor<fp16, [3072]> const_69_to_fp16 = const()[name = tensor<string, []>("const_69_to_fp16"), val = tensor<fp16, [3072]>(BLOBFILE(path = tensor<string, []>("@model_path/weights/weight.bin"), offset = tensor<uint64, []>(58190848)))];
            tensor<fp16, [1, 1500, 3072]> linear_22_cast_fp16 = linear(bias = const_69_to_fp16, weight = const_68_to_fp16, x = var_438_cast_fp16)[name = tensor<string, []>("linear_22_cast_fp16")];
            tensor<string, []> x_53_mode_0 = const()[name = tensor<string, []>("x_53_mode_0"), val = tensor<string, []>("EXACT")];
            tensor<fp16, [1, 1500, 3072]> x_53_cast_fp16 = gelu(mode = x_53_mode_0, x = linear_22_cast_fp16)[name = tensor<string, []>("x_53_cast_fp16")];
            tensor<fp16, [768, 3072]> const_70_to_fp16 = const()[name = tensor<string, []>("const_70_to_fp16"), val = tensor<fp16, [768, 3072]>(BLOBFILE(path = tensor<string, []>("@model_path/weights/weight.bin"), offset = tensor<uint64, []>(58197056)))];
            tensor<fp16, [768]> const_71_to_fp16 = const()[name = tensor<string, []>("const_71_to_fp16"), val = tensor<fp16, [768]>(BLOBFILE(path = tensor<string, []>("@model_path/weights/weight.bin"), offset = tensor<uint64, []>(62915712)))];
            tensor<fp16, [1, 1500, 768]> linear_23_cast_fp16 = linear(bias = const_71_to_fp16, weight = const_70_to_fp16, x = x_53_cast_fp16)[name = tensor<string, []>("linear_23_cast_fp16")];
            tensor<fp16, [1, 1500, 768]> x_55_cast_fp16 = add(x = x_49_cast_fp16, y = linear_23_cast_fp16)[name = tensor<string, []>("x_55_cast_fp16")];
            tensor<int32, [1]> var_479_axes_0 = const()[name = tensor<string, []>("op_479_axes_0"), val = tensor<int32, [1]>([-1])];
            tensor<fp16, [768]> blocks_4_attn_ln_weight_to_fp16 = const()[name = tensor<string, []>("blocks_4_attn_ln_weight_to_fp16"), val = tensor<fp16, [768]>(BLOBFILE(path = tensor<string, []>("@model_path/weights/weight.bin"), offset = tensor<uint64, []>(62917312)))];
            tensor<fp16, [768]> blocks_4_attn_ln_bias_to_fp16 = const()[name = tensor<string, []>("blocks_4_attn_ln_bias_to_fp16"), val = tensor<fp16, [768]>(BLOBFILE(path = tensor<string, []>("@model_path/weights/weight.bin"), offset = tensor<uint64, []>(62918912)))];
            tensor<fp16, []> var_469_to_fp16 = const()[name = tensor<string, []>("op_469_to_fp16"), val = tensor<fp16, []>(0x1.5p-17)];
            tensor<fp16, [1, 1500, 768]> var_479_cast_fp16 = layer_norm(axes = var_479_axes_0, beta = blocks_4_attn_ln_bias_to_fp16, epsilon = var_469_to_fp16, gamma = blocks_4_attn_ln_weight_to_fp16, x = x_55_cast_fp16)[name = tensor<string, []>("op_479_cast_fp16")];
            tensor<fp16, [768, 768]> const_72_to_fp16 = const()[name = tensor<string, []>("const_72_to_fp16"), val = tensor<fp16, [768, 768]>(BLOBFILE(path = tensor<string, []>("@model_path/weights/weight.bin"), offset = tensor<uint64, []>(62920512)))];
            tensor<fp16, [768]> const_73_to_fp16 = const()[name = tensor<string, []>("const_73_to_fp16"), val = tensor<fp16, [768]>(BLOBFILE(path = tensor<string, []>("@model_path/weights/weight.bin"), offset = tensor<uint64, []>(64100224)))];
            tensor<fp16, [1, 1500, 768]> linear_24_cast_fp16 = linear(bias = const_73_to_fp16, weight = const_72_to_fp16, x = var_479_cast_fp16)[name = tensor<string, []>("linear_24_cast_fp16")];
            tensor<fp16, [768, 768]> const_74_to_fp16 = const()[name = tensor<string, []>("const_74_to_fp16"), val = tensor<fp16, [768, 768]>(BLOBFILE(path = tensor<string, []>("@model_path/weights/weight.bin"), offset = tensor<uint64, []>(64101824)))];
            tensor<fp16, [1, 1500, 768]> linear_25_cast_fp16 = linear(bias = linear_1_bias_0_to_fp16, weight = const_74_to_fp16, x = var_479_cast_fp16)[name = tensor<string, []>("linear_25_cast_fp16")];
            tensor<fp16, [768, 768]> const_75_to_fp16 = const()[name = tensor<string, []>("const_75_to_fp16"), val = tensor<fp16, [768, 768]>(BLOBFILE(path = tensor<string, []>("@model_path/weights/weight.bin"), offset = tensor<uint64, []>(65281536)))];
            tensor<fp16, [768]> const_76_to_fp16 = const()[name = tensor<string, []>("const_76_to_fp16"), val = tensor<fp16, [768]>(BLOBFILE(path = tensor<string, []>("@model_path/weights/weight.bin"), offset = tensor<uint64, []>(66461248)))];
            tensor<fp16, [1, 1500, 768]> linear_26_cast_fp16 = linear(bias = const_76_to_fp16, weight = const_75_to_fp16, x = var_479_cast_fp16)[name = tensor<string, []>("linear_26_cast_fp16")];
            tensor<int32, [4]> var_503 = const()[name = tensor<string, []>("op_503"), val = tensor<int32, [4]>([1, 1500, 12, -1])];
            tensor<fp16, [1, 1500, 12, 64]> var_504_cast_fp16 = reshape(shape = var_503, x = linear_24_cast_fp16)[name = tensor<string, []>("op_504_cast_fp16")];
            tensor<int32, [4]> var_509 = const()[name = tensor<string, []>("op_509"), val = tensor<int32, [4]>([1, 1500, 12, -1])];
            tensor<fp16, [1, 1500, 12, 64]> var_510_cast_fp16 = reshape(shape = var_509, x = linear_25_cast_fp16)[name = tensor<string, []>("op_510_cast_fp16")];
            tensor<int32, [4]> var_515 = const()[name = tensor<string, []>("op_515"), val = tensor<int32, [4]>([1, 1500, 12, -1])];
            tensor<fp16, [1, 1500, 12, 64]> var_516_cast_fp16 = reshape(shape = var_515, x = linear_26_cast_fp16)[name = tensor<string, []>("op_516_cast_fp16")];
            tensor<int32, [4]> var_517 = const()[name = tensor<string, []>("op_517"), val = tensor<int32, [4]>([0, 2, 1, 3])];
            tensor<fp16, []> mul_4_y_0_to_fp16 = const()[name = tensor<string, []>("mul_4_y_0_to_fp16"), val = tensor<fp16, []>(0x1p-3)];
            tensor<fp16, [1, 1500, 12, 64]> mul_4_cast_fp16 = mul(x = var_504_cast_fp16, y = mul_4_y_0_to_fp16)[name = tensor<string, []>("mul_4_cast_fp16")];
            tensor<bool, []> matmul_4_transpose_y_0 = const()[name = tensor<string, []>("matmul_4_transpose_y_0"), val = tensor<bool, []>(true)];
            tensor<bool, []> matmul_4_transpose_x_0 = const()[name = tensor<string, []>("matmul_4_transpose_x_0"), val = tensor<bool, []>(false)];
            tensor<int32, [4]> transpose_56_perm_0 = const()[name = tensor<string, []>("transpose_56_perm_0"), val = tensor<int32, [4]>([0, 2, -3, -1])];
            tensor<int32, [4]> transpose_57_perm_0 = const()[name = tensor<string, []>("transpose_57_perm_0"), val = tensor<int32, [4]>([0, 2, -3, -1])];
            tensor<fp16, [1, 12, 1500, 64]> transpose_57 = transpose(perm = transpose_57_perm_0, x = var_510_cast_fp16)[name = tensor<string, []>("transpose_101")];
            tensor<fp16, [1, 12, 1500, 64]> transpose_56 = transpose(perm = transpose_56_perm_0, x = mul_4_cast_fp16)[name = tensor<string, []>("transpose_102")];
            tensor<fp16, [1, 12, 1500, 1500]> matmul_4_cast_fp16 = matmul(transpose_x = matmul_4_transpose_x_0, transpose_y = matmul_4_transpose_y_0, x = transpose_56, y = transpose_57)[name = tensor<string, []>("matmul_4_cast_fp16")];
            tensor<int32, []> softmax_4_axis_0 = const()[name = tensor<string, []>("softmax_4_axis_0"), val = tensor<int32, []>(-1)];
            tensor<fp16, [1, 12, 1500, 1500]> softmax_4_cast_fp16 = softmax(axis = softmax_4_axis_0, x = matmul_4_cast_fp16)[name = tensor<string, []>("softmax_4_cast_fp16")];
            tensor<bool, []> a_9_transpose_x_0 = const()[name = tensor<string, []>("a_9_transpose_x_0"), val = tensor<bool, []>(false)];
            tensor<bool, []> a_9_transpose_y_0 = const()[name = tensor<string, []>("a_9_transpose_y_0"), val = tensor<bool, []>(false)];
            tensor<fp16, [1, 12, 1500, 64]> v_19_cast_fp16 = transpose(perm = var_517, x = var_516_cast_fp16)[name = tensor<string, []>("transpose_103")];
            tensor<fp16, [1, 12, 1500, 64]> a_9_cast_fp16 = matmul(transpose_x = a_9_transpose_x_0, transpose_y = a_9_transpose_y_0, x = softmax_4_cast_fp16, y = v_19_cast_fp16)[name = tensor<string, []>("a_9_cast_fp16")];
            tensor<int32, [4]> var_520 = const()[name = tensor<string, []>("op_520"), val = tensor<int32, [4]>([0, 2, 1, 3])];
            tensor<int32, [3]> concat_4 = const()[name = tensor<string, []>("concat_4"), val = tensor<int32, [3]>([1, 1500, 768])];
            tensor<fp16, [1, 1500, 12, 64]> var_521_cast_fp16 = transpose(perm = var_520, x = a_9_cast_fp16)[name = tensor<string, []>("transpose_100")];
            tensor<fp16, [1, 1500, 768]> x_59_cast_fp16 = reshape(shape = concat_4, x = var_521_cast_fp16)[name = tensor<string, []>("x_59_cast_fp16")];
            tensor<fp16, [768, 768]> const_83_to_fp16 = const()[name = tensor<string, []>("const_83_to_fp16"), val = tensor<fp16, [768, 768]>(BLOBFILE(path = tensor<string, []>("@model_path/weights/weight.bin"), offset = tensor<uint64, []>(66462848)))];
            tensor<fp16, [768]> const_84_to_fp16 = const()[name = tensor<string, []>("const_84_to_fp16"), val = tensor<fp16, [768]>(BLOBFILE(path = tensor<string, []>("@model_path/weights/weight.bin"), offset = tensor<uint64, []>(67642560)))];
            tensor<fp16, [1, 1500, 768]> linear_27_cast_fp16 = linear(bias = const_84_to_fp16, weight = const_83_to_fp16, x = x_59_cast_fp16)[name = tensor<string, []>("linear_27_cast_fp16")];
            tensor<fp16, [1, 1500, 768]> x_61_cast_fp16 = add(x = x_55_cast_fp16, y = linear_27_cast_fp16)[name = tensor<string, []>("x_61_cast_fp16")];
            tensor<int32, [1]> var_533_axes_0 = const()[name = tensor<string, []>("op_533_axes_0"), val = tensor<int32, [1]>([-1])];
            tensor<fp16, [768]> blocks_4_mlp_ln_weight_to_fp16 = const()[name = tensor<string, []>("blocks_4_mlp_ln_weight_to_fp16"), val = tensor<fp16, [768]>(BLOBFILE(path = tensor<string, []>("@model_path/weights/weight.bin"), offset = tensor<uint64, []>(67644160)))];
            tensor<fp16, [768]> blocks_4_mlp_ln_bias_to_fp16 = const()[name = tensor<string, []>("blocks_4_mlp_ln_bias_to_fp16"), val = tensor<fp16, [768]>(BLOBFILE(path = tensor<string, []>("@model_path/weights/weight.bin"), offset = tensor<uint64, []>(67645760)))];
            tensor<fp16, [1, 1500, 768]> var_533_cast_fp16 = layer_norm(axes = var_533_axes_0, beta = blocks_4_mlp_ln_bias_to_fp16, epsilon = var_469_to_fp16, gamma = blocks_4_mlp_ln_weight_to_fp16, x = x_61_cast_fp16)[name = tensor<string, []>("op_533_cast_fp16")];
            tensor<fp16, [3072, 768]> const_85_to_fp16 = const()[name = tensor<string, []>("const_85_to_fp16"), val = tensor<fp16, [3072, 768]>(BLOBFILE(path = tensor<string, []>("@model_path/weights/weight.bin"), offset = tensor<uint64, []>(67647360)))];
            tensor<fp16, [3072]> const_86_to_fp16 = const()[name = tensor<string, []>("const_86_to_fp16"), val = tensor<fp16, [3072]>(BLOBFILE(path = tensor<string, []>("@model_path/weights/weight.bin"), offset = tensor<uint64, []>(72366016)))];
            tensor<fp16, [1, 1500, 3072]> linear_28_cast_fp16 = linear(bias = const_86_to_fp16, weight = const_85_to_fp16, x = var_533_cast_fp16)[name = tensor<string, []>("linear_28_cast_fp16")];
            tensor<string, []> x_65_mode_0 = const()[name = tensor<string, []>("x_65_mode_0"), val = tensor<string, []>("EXACT")];
            tensor<fp16, [1, 1500, 3072]> x_65_cast_fp16 = gelu(mode = x_65_mode_0, x = linear_28_cast_fp16)[name = tensor<string, []>("x_65_cast_fp16")];
            tensor<fp16, [768, 3072]> const_87_to_fp16 = const()[name = tensor<string, []>("const_87_to_fp16"), val = tensor<fp16, [768, 3072]>(BLOBFILE(path = tensor<string, []>("@model_path/weights/weight.bin"), offset = tensor<uint64, []>(72372224)))];
            tensor<fp16, [768]> const_88_to_fp16 = const()[name = tensor<string, []>("const_88_to_fp16"), val = tensor<fp16, [768]>(BLOBFILE(path = tensor<string, []>("@model_path/weights/weight.bin"), offset = tensor<uint64, []>(77090880)))];
            tensor<fp16, [1, 1500, 768]> linear_29_cast_fp16 = linear(bias = const_88_to_fp16, weight = const_87_to_fp16, x = x_65_cast_fp16)[name = tensor<string, []>("linear_29_cast_fp16")];
            tensor<fp16, [1, 1500, 768]> x_67_cast_fp16 = add(x = x_61_cast_fp16, y = linear_29_cast_fp16)[name = tensor<string, []>("x_67_cast_fp16")];
            tensor<int32, [1]> var_574_axes_0 = const()[name = tensor<string, []>("op_574_axes_0"), val = tensor<int32, [1]>([-1])];
            tensor<fp16, [768]> blocks_5_attn_ln_weight_to_fp16 = const()[name = tensor<string, []>("blocks_5_attn_ln_weight_to_fp16"), val = tensor<fp16, [768]>(BLOBFILE(path = tensor<string, []>("@model_path/weights/weight.bin"), offset = tensor<uint64, []>(77092480)))];
            tensor<fp16, [768]> blocks_5_attn_ln_bias_to_fp16 = const()[name = tensor<string, []>("blocks_5_attn_ln_bias_to_fp16"), val = tensor<fp16, [768]>(BLOBFILE(path = tensor<string, []>("@model_path/weights/weight.bin"), offset = tensor<uint64, []>(77094080)))];
            tensor<fp16, []> var_564_to_fp16 = const()[name = tensor<string, []>("op_564_to_fp16"), val = tensor<fp16, []>(0x1.5p-17)];
            tensor<fp16, [1, 1500, 768]> var_574_cast_fp16 = layer_norm(axes = var_574_axes_0, beta = blocks_5_attn_ln_bias_to_fp16, epsilon = var_564_to_fp16, gamma = blocks_5_attn_ln_weight_to_fp16, x = x_67_cast_fp16)[name = tensor<string, []>("op_574_cast_fp16")];
            tensor<fp16, [768, 768]> const_89_to_fp16 = const()[name = tensor<string, []>("const_89_to_fp16"), val = tensor<fp16, [768, 768]>(BLOBFILE(path = tensor<string, []>("@model_path/weights/weight.bin"), offset = tensor<uint64, []>(77095680)))];
            tensor<fp16, [768]> const_90_to_fp16 = const()[name = tensor<string, []>("const_90_to_fp16"), val = tensor<fp16, [768]>(BLOBFILE(path = tensor<string, []>("@model_path/weights/weight.bin"), offset = tensor<uint64, []>(78275392)))];
            tensor<fp16, [1, 1500, 768]> linear_30_cast_fp16 = linear(bias = const_90_to_fp16, weight = const_89_to_fp16, x = var_574_cast_fp16)[name = tensor<string, []>("linear_30_cast_fp16")];
            tensor<fp16, [768, 768]> const_91_to_fp16 = const()[name = tensor<string, []>("const_91_to_fp16"), val = tensor<fp16, [768, 768]>(BLOBFILE(path = tensor<string, []>("@model_path/weights/weight.bin"), offset = tensor<uint64, []>(78276992)))];
            tensor<fp16, [1, 1500, 768]> linear_31_cast_fp16 = linear(bias = linear_1_bias_0_to_fp16, weight = const_91_to_fp16, x = var_574_cast_fp16)[name = tensor<string, []>("linear_31_cast_fp16")];
            tensor<fp16, [768, 768]> const_92_to_fp16 = const()[name = tensor<string, []>("const_92_to_fp16"), val = tensor<fp16, [768, 768]>(BLOBFILE(path = tensor<string, []>("@model_path/weights/weight.bin"), offset = tensor<uint64, []>(79456704)))];
            tensor<fp16, [768]> const_93_to_fp16 = const()[name = tensor<string, []>("const_93_to_fp16"), val = tensor<fp16, [768]>(BLOBFILE(path = tensor<string, []>("@model_path/weights/weight.bin"), offset = tensor<uint64, []>(80636416)))];
            tensor<fp16, [1, 1500, 768]> linear_32_cast_fp16 = linear(bias = const_93_to_fp16, weight = const_92_to_fp16, x = var_574_cast_fp16)[name = tensor<string, []>("linear_32_cast_fp16")];
            tensor<int32, [4]> var_598 = const()[name = tensor<string, []>("op_598"), val = tensor<int32, [4]>([1, 1500, 12, -1])];
            tensor<fp16, [1, 1500, 12, 64]> var_599_cast_fp16 = reshape(shape = var_598, x = linear_30_cast_fp16)[name = tensor<string, []>("op_599_cast_fp16")];
            tensor<int32, [4]> var_604 = const()[name = tensor<string, []>("op_604"), val = tensor<int32, [4]>([1, 1500, 12, -1])];
            tensor<fp16, [1, 1500, 12, 64]> var_605_cast_fp16 = reshape(shape = var_604, x = linear_31_cast_fp16)[name = tensor<string, []>("op_605_cast_fp16")];
            tensor<int32, [4]> var_610 = const()[name = tensor<string, []>("op_610"), val = tensor<int32, [4]>([1, 1500, 12, -1])];
            tensor<fp16, [1, 1500, 12, 64]> var_611_cast_fp16 = reshape(shape = var_610, x = linear_32_cast_fp16)[name = tensor<string, []>("op_611_cast_fp16")];
            tensor<int32, [4]> var_612 = const()[name = tensor<string, []>("op_612"), val = tensor<int32, [4]>([0, 2, 1, 3])];
            tensor<fp16, []> mul_5_y_0_to_fp16 = const()[name = tensor<string, []>("mul_5_y_0_to_fp16"), val = tensor<fp16, []>(0x1p-3)];
            tensor<fp16, [1, 1500, 12, 64]> mul_5_cast_fp16 = mul(x = var_599_cast_fp16, y = mul_5_y_0_to_fp16)[name = tensor<string, []>("mul_5_cast_fp16")];
            tensor<bool, []> matmul_5_transpose_y_0 = const()[name = tensor<string, []>("matmul_5_transpose_y_0"), val = tensor<bool, []>(true)];
            tensor<bool, []> matmul_5_transpose_x_0 = const()[name = tensor<string, []>("matmul_5_transpose_x_0"), val = tensor<bool, []>(false)];
            tensor<int32, [4]> transpose_58_perm_0 = const()[name = tensor<string, []>("transpose_58_perm_0"), val = tensor<int32, [4]>([0, 2, -3, -1])];
            tensor<int32, [4]> transpose_59_perm_0 = const()[name = tensor<string, []>("transpose_59_perm_0"), val = tensor<int32, [4]>([0, 2, -3, -1])];
            tensor<fp16, [1, 12, 1500, 64]> transpose_59 = transpose(perm = transpose_59_perm_0, x = var_605_cast_fp16)[name = tensor<string, []>("transpose_97")];
            tensor<fp16, [1, 12, 1500, 64]> transpose_58 = transpose(perm = transpose_58_perm_0, x = mul_5_cast_fp16)[name = tensor<string, []>("transpose_98")];
            tensor<fp16, [1, 12, 1500, 1500]> matmul_5_cast_fp16 = matmul(transpose_x = matmul_5_transpose_x_0, transpose_y = matmul_5_transpose_y_0, x = transpose_58, y = transpose_59)[name = tensor<string, []>("matmul_5_cast_fp16")];
            tensor<int32, []> softmax_5_axis_0 = const()[name = tensor<string, []>("softmax_5_axis_0"), val = tensor<int32, []>(-1)];
            tensor<fp16, [1, 12, 1500, 1500]> softmax_5_cast_fp16 = softmax(axis = softmax_5_axis_0, x = matmul_5_cast_fp16)[name = tensor<string, []>("softmax_5_cast_fp16")];
            tensor<bool, []> a_11_transpose_x_0 = const()[name = tensor<string, []>("a_11_transpose_x_0"), val = tensor<bool, []>(false)];
            tensor<bool, []> a_11_transpose_y_0 = const()[name = tensor<string, []>("a_11_transpose_y_0"), val = tensor<bool, []>(false)];
            tensor<fp16, [1, 12, 1500, 64]> v_23_cast_fp16 = transpose(perm = var_612, x = var_611_cast_fp16)[name = tensor<string, []>("transpose_99")];
            tensor<fp16, [1, 12, 1500, 64]> a_11_cast_fp16 = matmul(transpose_x = a_11_transpose_x_0, transpose_y = a_11_transpose_y_0, x = softmax_5_cast_fp16, y = v_23_cast_fp16)[name = tensor<string, []>("a_11_cast_fp16")];
            tensor<int32, [4]> var_615 = const()[name = tensor<string, []>("op_615"), val = tensor<int32, [4]>([0, 2, 1, 3])];
            tensor<int32, [3]> concat_5 = const()[name = tensor<string, []>("concat_5"), val = tensor<int32, [3]>([1, 1500, 768])];
            tensor<fp16, [1, 1500, 12, 64]> var_616_cast_fp16 = transpose(perm = var_615, x = a_11_cast_fp16)[name = tensor<string, []>("transpose_96")];
            tensor<fp16, [1, 1500, 768]> x_71_cast_fp16 = reshape(shape = concat_5, x = var_616_cast_fp16)[name = tensor<string, []>("x_71_cast_fp16")];
            tensor<fp16, [768, 768]> const_100_to_fp16 = const()[name = tensor<string, []>("const_100_to_fp16"), val = tensor<fp16, [768, 768]>(BLOBFILE(path = tensor<string, []>("@model_path/weights/weight.bin"), offset = tensor<uint64, []>(80638016)))];
            tensor<fp16, [768]> const_101_to_fp16 = const()[name = tensor<string, []>("const_101_to_fp16"), val = tensor<fp16, [768]>(BLOBFILE(path = tensor<string, []>("@model_path/weights/weight.bin"), offset = tensor<uint64, []>(81817728)))];
            tensor<fp16, [1, 1500, 768]> linear_33_cast_fp16 = linear(bias = const_101_to_fp16, weight = const_100_to_fp16, x = x_71_cast_fp16)[name = tensor<string, []>("linear_33_cast_fp16")];
            tensor<fp16, [1, 1500, 768]> x_73_cast_fp16 = add(x = x_67_cast_fp16, y = linear_33_cast_fp16)[name = tensor<string, []>("x_73_cast_fp16")];
            tensor<int32, [1]> var_628_axes_0 = const()[name = tensor<string, []>("op_628_axes_0"), val = tensor<int32, [1]>([-1])];
            tensor<fp16, [768]> blocks_5_mlp_ln_weight_to_fp16 = const()[name = tensor<string, []>("blocks_5_mlp_ln_weight_to_fp16"), val = tensor<fp16, [768]>(BLOBFILE(path = tensor<string, []>("@model_path/weights/weight.bin"), offset = tensor<uint64, []>(81819328)))];
            tensor<fp16, [768]> blocks_5_mlp_ln_bias_to_fp16 = const()[name = tensor<string, []>("blocks_5_mlp_ln_bias_to_fp16"), val = tensor<fp16, [768]>(BLOBFILE(path = tensor<string, []>("@model_path/weights/weight.bin"), offset = tensor<uint64, []>(81820928)))];
            tensor<fp16, [1, 1500, 768]> var_628_cast_fp16 = layer_norm(axes = var_628_axes_0, beta = blocks_5_mlp_ln_bias_to_fp16, epsilon = var_564_to_fp16, gamma = blocks_5_mlp_ln_weight_to_fp16, x = x_73_cast_fp16)[name = tensor<string, []>("op_628_cast_fp16")];
            tensor<fp16, [3072, 768]> const_102_to_fp16 = const()[name = tensor<string, []>("const_102_to_fp16"), val = tensor<fp16, [3072, 768]>(BLOBFILE(path = tensor<string, []>("@model_path/weights/weight.bin"), offset = tensor<uint64, []>(81822528)))];
            tensor<fp16, [3072]> const_103_to_fp16 = const()[name = tensor<string, []>("const_103_to_fp16"), val = tensor<fp16, [3072]>(BLOBFILE(path = tensor<string, []>("@model_path/weights/weight.bin"), offset = tensor<uint64, []>(86541184)))];
            tensor<fp16, [1, 1500, 3072]> linear_34_cast_fp16 = linear(bias = const_103_to_fp16, weight = const_102_to_fp16, x = var_628_cast_fp16)[name = tensor<string, []>("linear_34_cast_fp16")];
            tensor<string, []> x_77_mode_0 = const()[name = tensor<string, []>("x_77_mode_0"), val = tensor<string, []>("EXACT")];
            tensor<fp16, [1, 1500, 3072]> x_77_cast_fp16 = gelu(mode = x_77_mode_0, x = linear_34_cast_fp16)[name = tensor<string, []>("x_77_cast_fp16")];
            tensor<fp16, [768, 3072]> const_104_to_fp16 = const()[name = tensor<string, []>("const_104_to_fp16"), val = tensor<fp16, [768, 3072]>(BLOBFILE(path = tensor<string, []>("@model_path/weights/weight.bin"), offset = tensor<uint64, []>(86547392)))];
            tensor<fp16, [768]> const_105_to_fp16 = const()[name = tensor<string, []>("const_105_to_fp16"), val = tensor<fp16, [768]>(BLOBFILE(path = tensor<string, []>("@model_path/weights/weight.bin"), offset = tensor<uint64, []>(91266048)))];
            tensor<fp16, [1, 1500, 768]> linear_35_cast_fp16 = linear(bias = const_105_to_fp16, weight = const_104_to_fp16, x = x_77_cast_fp16)[name = tensor<string, []>("linear_35_cast_fp16")];
            tensor<fp16, [1, 1500, 768]> x_79_cast_fp16 = add(x = x_73_cast_fp16, y = linear_35_cast_fp16)[name = tensor<string, []>("x_79_cast_fp16")];
            tensor<int32, [1]> var_669_axes_0 = const()[name = tensor<string, []>("op_669_axes_0"), val = tensor<int32, [1]>([-1])];
            tensor<fp16, [768]> blocks_6_attn_ln_weight_to_fp16 = const()[name = tensor<string, []>("blocks_6_attn_ln_weight_to_fp16"), val = tensor<fp16, [768]>(BLOBFILE(path = tensor<string, []>("@model_path/weights/weight.bin"), offset = tensor<uint64, []>(91267648)))];
            tensor<fp16, [768]> blocks_6_attn_ln_bias_to_fp16 = const()[name = tensor<string, []>("blocks_6_attn_ln_bias_to_fp16"), val = tensor<fp16, [768]>(BLOBFILE(path = tensor<string, []>("@model_path/weights/weight.bin"), offset = tensor<uint64, []>(91269248)))];
            tensor<fp16, []> var_659_to_fp16 = const()[name = tensor<string, []>("op_659_to_fp16"), val = tensor<fp16, []>(0x1.5p-17)];
            tensor<fp16, [1, 1500, 768]> var_669_cast_fp16 = layer_norm(axes = var_669_axes_0, beta = blocks_6_attn_ln_bias_to_fp16, epsilon = var_659_to_fp16, gamma = blocks_6_attn_ln_weight_to_fp16, x = x_79_cast_fp16)[name = tensor<string, []>("op_669_cast_fp16")];
            tensor<fp16, [768, 768]> const_106_to_fp16 = const()[name = tensor<string, []>("const_106_to_fp16"), val = tensor<fp16, [768, 768]>(BLOBFILE(path = tensor<string, []>("@model_path/weights/weight.bin"), offset = tensor<uint64, []>(91270848)))];
            tensor<fp16, [768]> const_107_to_fp16 = const()[name = tensor<string, []>("const_107_to_fp16"), val = tensor<fp16, [768]>(BLOBFILE(path = tensor<string, []>("@model_path/weights/weight.bin"), offset = tensor<uint64, []>(92450560)))];
            tensor<fp16, [1, 1500, 768]> linear_36_cast_fp16 = linear(bias = const_107_to_fp16, weight = const_106_to_fp16, x = var_669_cast_fp16)[name = tensor<string, []>("linear_36_cast_fp16")];
            tensor<fp16, [768, 768]> const_108_to_fp16 = const()[name = tensor<string, []>("const_108_to_fp16"), val = tensor<fp16, [768, 768]>(BLOBFILE(path = tensor<string, []>("@model_path/weights/weight.bin"), offset = tensor<uint64, []>(92452160)))];
            tensor<fp16, [1, 1500, 768]> linear_37_cast_fp16 = linear(bias = linear_1_bias_0_to_fp16, weight = const_108_to_fp16, x = var_669_cast_fp16)[name = tensor<string, []>("linear_37_cast_fp16")];
            tensor<fp16, [768, 768]> const_109_to_fp16 = const()[name = tensor<string, []>("const_109_to_fp16"), val = tensor<fp16, [768, 768]>(BLOBFILE(path = tensor<string, []>("@model_path/weights/weight.bin"), offset = tensor<uint64, []>(93631872)))];
            tensor<fp16, [768]> const_110_to_fp16 = const()[name = tensor<string, []>("const_110_to_fp16"), val = tensor<fp16, [768]>(BLOBFILE(path = tensor<string, []>("@model_path/weights/weight.bin"), offset = tensor<uint64, []>(94811584)))];
            tensor<fp16, [1, 1500, 768]> linear_38_cast_fp16 = linear(bias = const_110_to_fp16, weight = const_109_to_fp16, x = var_669_cast_fp16)[name = tensor<string, []>("linear_38_cast_fp16")];
            tensor<int32, [4]> var_693 = const()[name = tensor<string, []>("op_693"), val = tensor<int32, [4]>([1, 1500, 12, -1])];
            tensor<fp16, [1, 1500, 12, 64]> var_694_cast_fp16 = reshape(shape = var_693, x = linear_36_cast_fp16)[name = tensor<string, []>("op_694_cast_fp16")];
            tensor<int32, [4]> var_699 = const()[name = tensor<string, []>("op_699"), val = tensor<int32, [4]>([1, 1500, 12, -1])];
            tensor<fp16, [1, 1500, 12, 64]> var_700_cast_fp16 = reshape(shape = var_699, x = linear_37_cast_fp16)[name = tensor<string, []>("op_700_cast_fp16")];
            tensor<int32, [4]> var_705 = const()[name = tensor<string, []>("op_705"), val = tensor<int32, [4]>([1, 1500, 12, -1])];
            tensor<fp16, [1, 1500, 12, 64]> var_706_cast_fp16 = reshape(shape = var_705, x = linear_38_cast_fp16)[name = tensor<string, []>("op_706_cast_fp16")];
            tensor<int32, [4]> var_707 = const()[name = tensor<string, []>("op_707"), val = tensor<int32, [4]>([0, 2, 1, 3])];
            tensor<fp16, []> mul_6_y_0_to_fp16 = const()[name = tensor<string, []>("mul_6_y_0_to_fp16"), val = tensor<fp16, []>(0x1p-3)];
            tensor<fp16, [1, 1500, 12, 64]> mul_6_cast_fp16 = mul(x = var_694_cast_fp16, y = mul_6_y_0_to_fp16)[name = tensor<string, []>("mul_6_cast_fp16")];
            tensor<bool, []> matmul_6_transpose_y_0 = const()[name = tensor<string, []>("matmul_6_transpose_y_0"), val = tensor<bool, []>(true)];
            tensor<bool, []> matmul_6_transpose_x_0 = const()[name = tensor<string, []>("matmul_6_transpose_x_0"), val = tensor<bool, []>(false)];
            tensor<int32, [4]> transpose_60_perm_0 = const()[name = tensor<string, []>("transpose_60_perm_0"), val = tensor<int32, [4]>([0, 2, -3, -1])];
            tensor<int32, [4]> transpose_61_perm_0 = const()[name = tensor<string, []>("transpose_61_perm_0"), val = tensor<int32, [4]>([0, 2, -3, -1])];
            tensor<fp16, [1, 12, 1500, 64]> transpose_61 = transpose(perm = transpose_61_perm_0, x = var_700_cast_fp16)[name = tensor<string, []>("transpose_93")];
            tensor<fp16, [1, 12, 1500, 64]> transpose_60 = transpose(perm = transpose_60_perm_0, x = mul_6_cast_fp16)[name = tensor<string, []>("transpose_94")];
            tensor<fp16, [1, 12, 1500, 1500]> matmul_6_cast_fp16 = matmul(transpose_x = matmul_6_transpose_x_0, transpose_y = matmul_6_transpose_y_0, x = transpose_60, y = transpose_61)[name = tensor<string, []>("matmul_6_cast_fp16")];
            tensor<int32, []> softmax_6_axis_0 = const()[name = tensor<string, []>("softmax_6_axis_0"), val = tensor<int32, []>(-1)];
            tensor<fp16, [1, 12, 1500, 1500]> softmax_6_cast_fp16 = softmax(axis = softmax_6_axis_0, x = matmul_6_cast_fp16)[name = tensor<string, []>("softmax_6_cast_fp16")];
            tensor<bool, []> a_13_transpose_x_0 = const()[name = tensor<string, []>("a_13_transpose_x_0"), val = tensor<bool, []>(false)];
            tensor<bool, []> a_13_transpose_y_0 = const()[name = tensor<string, []>("a_13_transpose_y_0"), val = tensor<bool, []>(false)];
            tensor<fp16, [1, 12, 1500, 64]> v_27_cast_fp16 = transpose(perm = var_707, x = var_706_cast_fp16)[name = tensor<string, []>("transpose_95")];
            tensor<fp16, [1, 12, 1500, 64]> a_13_cast_fp16 = matmul(transpose_x = a_13_transpose_x_0, transpose_y = a_13_transpose_y_0, x = softmax_6_cast_fp16, y = v_27_cast_fp16)[name = tensor<string, []>("a_13_cast_fp16")];
            tensor<int32, [4]> var_710 = const()[name = tensor<string, []>("op_710"), val = tensor<int32, [4]>([0, 2, 1, 3])];
            tensor<int32, [3]> concat_6 = const()[name = tensor<string, []>("concat_6"), val = tensor<int32, [3]>([1, 1500, 768])];
            tensor<fp16, [1, 1500, 12, 64]> var_711_cast_fp16 = transpose(perm = var_710, x = a_13_cast_fp16)[name = tensor<string, []>("transpose_92")];
            tensor<fp16, [1, 1500, 768]> x_83_cast_fp16 = reshape(shape = concat_6, x = var_711_cast_fp16)[name = tensor<string, []>("x_83_cast_fp16")];
            tensor<fp16, [768, 768]> const_117_to_fp16 = const()[name = tensor<string, []>("const_117_to_fp16"), val = tensor<fp16, [768, 768]>(BLOBFILE(path = tensor<string, []>("@model_path/weights/weight.bin"), offset = tensor<uint64, []>(94813184)))];
            tensor<fp16, [768]> const_118_to_fp16 = const()[name = tensor<string, []>("const_118_to_fp16"), val = tensor<fp16, [768]>(BLOBFILE(path = tensor<string, []>("@model_path/weights/weight.bin"), offset = tensor<uint64, []>(95992896)))];
            tensor<fp16, [1, 1500, 768]> linear_39_cast_fp16 = linear(bias = const_118_to_fp16, weight = const_117_to_fp16, x = x_83_cast_fp16)[name = tensor<string, []>("linear_39_cast_fp16")];
            tensor<fp16, [1, 1500, 768]> x_85_cast_fp16 = add(x = x_79_cast_fp16, y = linear_39_cast_fp16)[name = tensor<string, []>("x_85_cast_fp16")];
            tensor<int32, [1]> var_723_axes_0 = const()[name = tensor<string, []>("op_723_axes_0"), val = tensor<int32, [1]>([-1])];
            tensor<fp16, [768]> blocks_6_mlp_ln_weight_to_fp16 = const()[name = tensor<string, []>("blocks_6_mlp_ln_weight_to_fp16"), val = tensor<fp16, [768]>(BLOBFILE(path = tensor<string, []>("@model_path/weights/weight.bin"), offset = tensor<uint64, []>(95994496)))];
            tensor<fp16, [768]> blocks_6_mlp_ln_bias_to_fp16 = const()[name = tensor<string, []>("blocks_6_mlp_ln_bias_to_fp16"), val = tensor<fp16, [768]>(BLOBFILE(path = tensor<string, []>("@model_path/weights/weight.bin"), offset = tensor<uint64, []>(95996096)))];
            tensor<fp16, [1, 1500, 768]> var_723_cast_fp16 = layer_norm(axes = var_723_axes_0, beta = blocks_6_mlp_ln_bias_to_fp16, epsilon = var_659_to_fp16, gamma = blocks_6_mlp_ln_weight_to_fp16, x = x_85_cast_fp16)[name = tensor<string, []>("op_723_cast_fp16")];
            tensor<fp16, [3072, 768]> const_119_to_fp16 = const()[name = tensor<string, []>("const_119_to_fp16"), val = tensor<fp16, [3072, 768]>(BLOBFILE(path = tensor<string, []>("@model_path/weights/weight.bin"), offset = tensor<uint64, []>(95997696)))];
            tensor<fp16, [3072]> const_120_to_fp16 = const()[name = tensor<string, []>("const_120_to_fp16"), val = tensor<fp16, [3072]>(BLOBFILE(path = tensor<string, []>("@model_path/weights/weight.bin"), offset = tensor<uint64, []>(100716352)))];
            tensor<fp16, [1, 1500, 3072]> linear_40_cast_fp16 = linear(bias = const_120_to_fp16, weight = const_119_to_fp16, x = var_723_cast_fp16)[name = tensor<string, []>("linear_40_cast_fp16")];
            tensor<string, []> x_89_mode_0 = const()[name = tensor<string, []>("x_89_mode_0"), val = tensor<string, []>("EXACT")];
            tensor<fp16, [1, 1500, 3072]> x_89_cast_fp16 = gelu(mode = x_89_mode_0, x = linear_40_cast_fp16)[name = tensor<string, []>("x_89_cast_fp16")];
            tensor<fp16, [768, 3072]> const_121_to_fp16 = const()[name = tensor<string, []>("const_121_to_fp16"), val = tensor<fp16, [768, 3072]>(BLOBFILE(path = tensor<string, []>("@model_path/weights/weight.bin"), offset = tensor<uint64, []>(100722560)))];
            tensor<fp16, [768]> const_122_to_fp16 = const()[name = tensor<string, []>("const_122_to_fp16"), val = tensor<fp16, [768]>(BLOBFILE(path = tensor<string, []>("@model_path/weights/weight.bin"), offset = tensor<uint64, []>(105441216)))];
            tensor<fp16, [1, 1500, 768]> linear_41_cast_fp16 = linear(bias = const_122_to_fp16, weight = const_121_to_fp16, x = x_89_cast_fp16)[name = tensor<string, []>("linear_41_cast_fp16")];
            tensor<fp16, [1, 1500, 768]> x_91_cast_fp16 = add(x = x_85_cast_fp16, y = linear_41_cast_fp16)[name = tensor<string, []>("x_91_cast_fp16")];
            tensor<int32, [1]> var_764_axes_0 = const()[name = tensor<string, []>("op_764_axes_0"), val = tensor<int32, [1]>([-1])];
            tensor<fp16, [768]> blocks_7_attn_ln_weight_to_fp16 = const()[name = tensor<string, []>("blocks_7_attn_ln_weight_to_fp16"), val = tensor<fp16, [768]>(BLOBFILE(path = tensor<string, []>("@model_path/weights/weight.bin"), offset = tensor<uint64, []>(105442816)))];
            tensor<fp16, [768]> blocks_7_attn_ln_bias_to_fp16 = const()[name = tensor<string, []>("blocks_7_attn_ln_bias_to_fp16"), val = tensor<fp16, [768]>(BLOBFILE(path = tensor<string, []>("@model_path/weights/weight.bin"), offset = tensor<uint64, []>(105444416)))];
            tensor<fp16, []> var_754_to_fp16 = const()[name = tensor<string, []>("op_754_to_fp16"), val = tensor<fp16, []>(0x1.5p-17)];
            tensor<fp16, [1, 1500, 768]> var_764_cast_fp16 = layer_norm(axes = var_764_axes_0, beta = blocks_7_attn_ln_bias_to_fp16, epsilon = var_754_to_fp16, gamma = blocks_7_attn_ln_weight_to_fp16, x = x_91_cast_fp16)[name = tensor<string, []>("op_764_cast_fp16")];
            tensor<fp16, [768, 768]> const_123_to_fp16 = const()[name = tensor<string, []>("const_123_to_fp16"), val = tensor<fp16, [768, 768]>(BLOBFILE(path = tensor<string, []>("@model_path/weights/weight.bin"), offset = tensor<uint64, []>(105446016)))];
            tensor<fp16, [768]> const_124_to_fp16 = const()[name = tensor<string, []>("const_124_to_fp16"), val = tensor<fp16, [768]>(BLOBFILE(path = tensor<string, []>("@model_path/weights/weight.bin"), offset = tensor<uint64, []>(106625728)))];
            tensor<fp16, [1, 1500, 768]> linear_42_cast_fp16 = linear(bias = const_124_to_fp16, weight = const_123_to_fp16, x = var_764_cast_fp16)[name = tensor<string, []>("linear_42_cast_fp16")];
            tensor<fp16, [768, 768]> const_125_to_fp16 = const()[name = tensor<string, []>("const_125_to_fp16"), val = tensor<fp16, [768, 768]>(BLOBFILE(path = tensor<string, []>("@model_path/weights/weight.bin"), offset = tensor<uint64, []>(106627328)))];
            tensor<fp16, [1, 1500, 768]> linear_43_cast_fp16 = linear(bias = linear_1_bias_0_to_fp16, weight = const_125_to_fp16, x = var_764_cast_fp16)[name = tensor<string, []>("linear_43_cast_fp16")];
            tensor<fp16, [768, 768]> const_126_to_fp16 = const()[name = tensor<string, []>("const_126_to_fp16"), val = tensor<fp16, [768, 768]>(BLOBFILE(path = tensor<string, []>("@model_path/weights/weight.bin"), offset = tensor<uint64, []>(107807040)))];
            tensor<fp16, [768]> const_127_to_fp16 = const()[name = tensor<string, []>("const_127_to_fp16"), val = tensor<fp16, [768]>(BLOBFILE(path = tensor<string, []>("@model_path/weights/weight.bin"), offset = tensor<uint64, []>(108986752)))];
            tensor<fp16, [1, 1500, 768]> linear_44_cast_fp16 = linear(bias = const_127_to_fp16, weight = const_126_to_fp16, x = var_764_cast_fp16)[name = tensor<string, []>("linear_44_cast_fp16")];
            tensor<int32, [4]> var_788 = const()[name = tensor<string, []>("op_788"), val = tensor<int32, [4]>([1, 1500, 12, -1])];
            tensor<fp16, [1, 1500, 12, 64]> var_789_cast_fp16 = reshape(shape = var_788, x = linear_42_cast_fp16)[name = tensor<string, []>("op_789_cast_fp16")];
            tensor<int32, [4]> var_794 = const()[name = tensor<string, []>("op_794"), val = tensor<int32, [4]>([1, 1500, 12, -1])];
            tensor<fp16, [1, 1500, 12, 64]> var_795_cast_fp16 = reshape(shape = var_794, x = linear_43_cast_fp16)[name = tensor<string, []>("op_795_cast_fp16")];
            tensor<int32, [4]> var_800 = const()[name = tensor<string, []>("op_800"), val = tensor<int32, [4]>([1, 1500, 12, -1])];
            tensor<fp16, [1, 1500, 12, 64]> var_801_cast_fp16 = reshape(shape = var_800, x = linear_44_cast_fp16)[name = tensor<string, []>("op_801_cast_fp16")];
            tensor<int32, [4]> var_802 = const()[name = tensor<string, []>("op_802"), val = tensor<int32, [4]>([0, 2, 1, 3])];
            tensor<fp16, []> mul_7_y_0_to_fp16 = const()[name = tensor<string, []>("mul_7_y_0_to_fp16"), val = tensor<fp16, []>(0x1p-3)];
            tensor<fp16, [1, 1500, 12, 64]> mul_7_cast_fp16 = mul(x = var_789_cast_fp16, y = mul_7_y_0_to_fp16)[name = tensor<string, []>("mul_7_cast_fp16")];
            tensor<bool, []> matmul_7_transpose_y_0 = const()[name = tensor<string, []>("matmul_7_transpose_y_0"), val = tensor<bool, []>(true)];
            tensor<bool, []> matmul_7_transpose_x_0 = const()[name = tensor<string, []>("matmul_7_transpose_x_0"), val = tensor<bool, []>(false)];
            tensor<int32, [4]> transpose_62_perm_0 = const()[name = tensor<string, []>("transpose_62_perm_0"), val = tensor<int32, [4]>([0, 2, -3, -1])];
            tensor<int32, [4]> transpose_63_perm_0 = const()[name = tensor<string, []>("transpose_63_perm_0"), val = tensor<int32, [4]>([0, 2, -3, -1])];
            tensor<fp16, [1, 12, 1500, 64]> transpose_63 = transpose(perm = transpose_63_perm_0, x = var_795_cast_fp16)[name = tensor<string, []>("transpose_89")];
            tensor<fp16, [1, 12, 1500, 64]> transpose_62 = transpose(perm = transpose_62_perm_0, x = mul_7_cast_fp16)[name = tensor<string, []>("transpose_90")];
            tensor<fp16, [1, 12, 1500, 1500]> matmul_7_cast_fp16 = matmul(transpose_x = matmul_7_transpose_x_0, transpose_y = matmul_7_transpose_y_0, x = transpose_62, y = transpose_63)[name = tensor<string, []>("matmul_7_cast_fp16")];
            tensor<int32, []> softmax_7_axis_0 = const()[name = tensor<string, []>("softmax_7_axis_0"), val = tensor<int32, []>(-1)];
            tensor<fp16, [1, 12, 1500, 1500]> softmax_7_cast_fp16 = softmax(axis = softmax_7_axis_0, x = matmul_7_cast_fp16)[name = tensor<string, []>("softmax_7_cast_fp16")];
            tensor<bool, []> a_15_transpose_x_0 = const()[name = tensor<string, []>("a_15_transpose_x_0"), val = tensor<bool, []>(false)];
            tensor<bool, []> a_15_transpose_y_0 = const()[name = tensor<string, []>("a_15_transpose_y_0"), val = tensor<bool, []>(false)];
            tensor<fp16, [1, 12, 1500, 64]> v_31_cast_fp16 = transpose(perm = var_802, x = var_801_cast_fp16)[name = tensor<string, []>("transpose_91")];
            tensor<fp16, [1, 12, 1500, 64]> a_15_cast_fp16 = matmul(transpose_x = a_15_transpose_x_0, transpose_y = a_15_transpose_y_0, x = softmax_7_cast_fp16, y = v_31_cast_fp16)[name = tensor<string, []>("a_15_cast_fp16")];
            tensor<int32, [4]> var_805 = const()[name = tensor<string, []>("op_805"), val = tensor<int32, [4]>([0, 2, 1, 3])];
            tensor<int32, [3]> concat_7 = const()[name = tensor<string, []>("concat_7"), val = tensor<int32, [3]>([1, 1500, 768])];
            tensor<fp16, [1, 1500, 12, 64]> var_806_cast_fp16 = transpose(perm = var_805, x = a_15_cast_fp16)[name = tensor<string, []>("transpose_88")];
            tensor<fp16, [1, 1500, 768]> x_95_cast_fp16 = reshape(shape = concat_7, x = var_806_cast_fp16)[name = tensor<string, []>("x_95_cast_fp16")];
            tensor<fp16, [768, 768]> const_134_to_fp16 = const()[name = tensor<string, []>("const_134_to_fp16"), val = tensor<fp16, [768, 768]>(BLOBFILE(path = tensor<string, []>("@model_path/weights/weight.bin"), offset = tensor<uint64, []>(108988352)))];
            tensor<fp16, [768]> const_135_to_fp16 = const()[name = tensor<string, []>("const_135_to_fp16"), val = tensor<fp16, [768]>(BLOBFILE(path = tensor<string, []>("@model_path/weights/weight.bin"), offset = tensor<uint64, []>(110168064)))];
            tensor<fp16, [1, 1500, 768]> linear_45_cast_fp16 = linear(bias = const_135_to_fp16, weight = const_134_to_fp16, x = x_95_cast_fp16)[name = tensor<string, []>("linear_45_cast_fp16")];
            tensor<fp16, [1, 1500, 768]> x_97_cast_fp16 = add(x = x_91_cast_fp16, y = linear_45_cast_fp16)[name = tensor<string, []>("x_97_cast_fp16")];
            tensor<int32, [1]> var_818_axes_0 = const()[name = tensor<string, []>("op_818_axes_0"), val = tensor<int32, [1]>([-1])];
            tensor<fp16, [768]> blocks_7_mlp_ln_weight_to_fp16 = const()[name = tensor<string, []>("blocks_7_mlp_ln_weight_to_fp16"), val = tensor<fp16, [768]>(BLOBFILE(path = tensor<string, []>("@model_path/weights/weight.bin"), offset = tensor<uint64, []>(110169664)))];
            tensor<fp16, [768]> blocks_7_mlp_ln_bias_to_fp16 = const()[name = tensor<string, []>("blocks_7_mlp_ln_bias_to_fp16"), val = tensor<fp16, [768]>(BLOBFILE(path = tensor<string, []>("@model_path/weights/weight.bin"), offset = tensor<uint64, []>(110171264)))];
            tensor<fp16, [1, 1500, 768]> var_818_cast_fp16 = layer_norm(axes = var_818_axes_0, beta = blocks_7_mlp_ln_bias_to_fp16, epsilon = var_754_to_fp16, gamma = blocks_7_mlp_ln_weight_to_fp16, x = x_97_cast_fp16)[name = tensor<string, []>("op_818_cast_fp16")];
            tensor<fp16, [3072, 768]> const_136_to_fp16 = const()[name = tensor<string, []>("const_136_to_fp16"), val = tensor<fp16, [3072, 768]>(BLOBFILE(path = tensor<string, []>("@model_path/weights/weight.bin"), offset = tensor<uint64, []>(110172864)))];
            tensor<fp16, [3072]> const_137_to_fp16 = const()[name = tensor<string, []>("const_137_to_fp16"), val = tensor<fp16, [3072]>(BLOBFILE(path = tensor<string, []>("@model_path/weights/weight.bin"), offset = tensor<uint64, []>(114891520)))];
            tensor<fp16, [1, 1500, 3072]> linear_46_cast_fp16 = linear(bias = const_137_to_fp16, weight = const_136_to_fp16, x = var_818_cast_fp16)[name = tensor<string, []>("linear_46_cast_fp16")];
            tensor<string, []> x_101_mode_0 = const()[name = tensor<string, []>("x_101_mode_0"), val = tensor<string, []>("EXACT")];
            tensor<fp16, [1, 1500, 3072]> x_101_cast_fp16 = gelu(mode = x_101_mode_0, x = linear_46_cast_fp16)[name = tensor<string, []>("x_101_cast_fp16")];
            tensor<fp16, [768, 3072]> const_138_to_fp16 = const()[name = tensor<string, []>("const_138_to_fp16"), val = tensor<fp16, [768, 3072]>(BLOBFILE(path = tensor<string, []>("@model_path/weights/weight.bin"), offset = tensor<uint64, []>(114897728)))];
            tensor<fp16, [768]> const_139_to_fp16 = const()[name = tensor<string, []>("const_139_to_fp16"), val = tensor<fp16, [768]>(BLOBFILE(path = tensor<string, []>("@model_path/weights/weight.bin"), offset = tensor<uint64, []>(119616384)))];
            tensor<fp16, [1, 1500, 768]> linear_47_cast_fp16 = linear(bias = const_139_to_fp16, weight = const_138_to_fp16, x = x_101_cast_fp16)[name = tensor<string, []>("linear_47_cast_fp16")];
            tensor<fp16, [1, 1500, 768]> x_103_cast_fp16 = add(x = x_97_cast_fp16, y = linear_47_cast_fp16)[name = tensor<string, []>("x_103_cast_fp16")];
            tensor<int32, [1]> var_859_axes_0 = const()[name = tensor<string, []>("op_859_axes_0"), val = tensor<int32, [1]>([-1])];
            tensor<fp16, [768]> blocks_8_attn_ln_weight_to_fp16 = const()[name = tensor<string, []>("blocks_8_attn_ln_weight_to_fp16"), val = tensor<fp16, [768]>(BLOBFILE(path = tensor<string, []>("@model_path/weights/weight.bin"), offset = tensor<uint64, []>(119617984)))];
            tensor<fp16, [768]> blocks_8_attn_ln_bias_to_fp16 = const()[name = tensor<string, []>("blocks_8_attn_ln_bias_to_fp16"), val = tensor<fp16, [768]>(BLOBFILE(path = tensor<string, []>("@model_path/weights/weight.bin"), offset = tensor<uint64, []>(119619584)))];
            tensor<fp16, []> var_849_to_fp16 = const()[name = tensor<string, []>("op_849_to_fp16"), val = tensor<fp16, []>(0x1.5p-17)];
            tensor<fp16, [1, 1500, 768]> var_859_cast_fp16 = layer_norm(axes = var_859_axes_0, beta = blocks_8_attn_ln_bias_to_fp16, epsilon = var_849_to_fp16, gamma = blocks_8_attn_ln_weight_to_fp16, x = x_103_cast_fp16)[name = tensor<string, []>("op_859_cast_fp16")];
            tensor<fp16, [768, 768]> const_140_to_fp16 = const()[name = tensor<string, []>("const_140_to_fp16"), val = tensor<fp16, [768, 768]>(BLOBFILE(path = tensor<string, []>("@model_path/weights/weight.bin"), offset = tensor<uint64, []>(119621184)))];
            tensor<fp16, [768]> const_141_to_fp16 = const()[name = tensor<string, []>("const_141_to_fp16"), val = tensor<fp16, [768]>(BLOBFILE(path = tensor<string, []>("@model_path/weights/weight.bin"), offset = tensor<uint64, []>(120800896)))];
            tensor<fp16, [1, 1500, 768]> linear_48_cast_fp16 = linear(bias = const_141_to_fp16, weight = const_140_to_fp16, x = var_859_cast_fp16)[name = tensor<string, []>("linear_48_cast_fp16")];
            tensor<fp16, [768, 768]> const_142_to_fp16 = const()[name = tensor<string, []>("const_142_to_fp16"), val = tensor<fp16, [768, 768]>(BLOBFILE(path = tensor<string, []>("@model_path/weights/weight.bin"), offset = tensor<uint64, []>(120802496)))];
            tensor<fp16, [1, 1500, 768]> linear_49_cast_fp16 = linear(bias = linear_1_bias_0_to_fp16, weight = const_142_to_fp16, x = var_859_cast_fp16)[name = tensor<string, []>("linear_49_cast_fp16")];
            tensor<fp16, [768, 768]> const_143_to_fp16 = const()[name = tensor<string, []>("const_143_to_fp16"), val = tensor<fp16, [768, 768]>(BLOBFILE(path = tensor<string, []>("@model_path/weights/weight.bin"), offset = tensor<uint64, []>(121982208)))];
            tensor<fp16, [768]> const_144_to_fp16 = const()[name = tensor<string, []>("const_144_to_fp16"), val = tensor<fp16, [768]>(BLOBFILE(path = tensor<string, []>("@model_path/weights/weight.bin"), offset = tensor<uint64, []>(123161920)))];
            tensor<fp16, [1, 1500, 768]> linear_50_cast_fp16 = linear(bias = const_144_to_fp16, weight = const_143_to_fp16, x = var_859_cast_fp16)[name = tensor<string, []>("linear_50_cast_fp16")];
            tensor<int32, [4]> var_883 = const()[name = tensor<string, []>("op_883"), val = tensor<int32, [4]>([1, 1500, 12, -1])];
            tensor<fp16, [1, 1500, 12, 64]> var_884_cast_fp16 = reshape(shape = var_883, x = linear_48_cast_fp16)[name = tensor<string, []>("op_884_cast_fp16")];
            tensor<int32, [4]> var_889 = const()[name = tensor<string, []>("op_889"), val = tensor<int32, [4]>([1, 1500, 12, -1])];
            tensor<fp16, [1, 1500, 12, 64]> var_890_cast_fp16 = reshape(shape = var_889, x = linear_49_cast_fp16)[name = tensor<string, []>("op_890_cast_fp16")];
            tensor<int32, [4]> var_895 = const()[name = tensor<string, []>("op_895"), val = tensor<int32, [4]>([1, 1500, 12, -1])];
            tensor<fp16, [1, 1500, 12, 64]> var_896_cast_fp16 = reshape(shape = var_895, x = linear_50_cast_fp16)[name = tensor<string, []>("op_896_cast_fp16")];
            tensor<int32, [4]> var_897 = const()[name = tensor<string, []>("op_897"), val = tensor<int32, [4]>([0, 2, 1, 3])];
            tensor<fp16, []> mul_8_y_0_to_fp16 = const()[name = tensor<string, []>("mul_8_y_0_to_fp16"), val = tensor<fp16, []>(0x1p-3)];
            tensor<fp16, [1, 1500, 12, 64]> mul_8_cast_fp16 = mul(x = var_884_cast_fp16, y = mul_8_y_0_to_fp16)[name = tensor<string, []>("mul_8_cast_fp16")];
            tensor<bool, []> matmul_8_transpose_y_0 = const()[name = tensor<string, []>("matmul_8_transpose_y_0"), val = tensor<bool, []>(true)];
            tensor<bool, []> matmul_8_transpose_x_0 = const()[name = tensor<string, []>("matmul_8_transpose_x_0"), val = tensor<bool, []>(false)];
            tensor<int32, [4]> transpose_64_perm_0 = const()[name = tensor<string, []>("transpose_64_perm_0"), val = tensor<int32, [4]>([0, 2, -3, -1])];
            tensor<int32, [4]> transpose_65_perm_0 = const()[name = tensor<string, []>("transpose_65_perm_0"), val = tensor<int32, [4]>([0, 2, -3, -1])];
            tensor<fp16, [1, 12, 1500, 64]> transpose_65 = transpose(perm = transpose_65_perm_0, x = var_890_cast_fp16)[name = tensor<string, []>("transpose_85")];
            tensor<fp16, [1, 12, 1500, 64]> transpose_64 = transpose(perm = transpose_64_perm_0, x = mul_8_cast_fp16)[name = tensor<string, []>("transpose_86")];
            tensor<fp16, [1, 12, 1500, 1500]> matmul_8_cast_fp16 = matmul(transpose_x = matmul_8_transpose_x_0, transpose_y = matmul_8_transpose_y_0, x = transpose_64, y = transpose_65)[name = tensor<string, []>("matmul_8_cast_fp16")];
            tensor<int32, []> softmax_8_axis_0 = const()[name = tensor<string, []>("softmax_8_axis_0"), val = tensor<int32, []>(-1)];
            tensor<fp16, [1, 12, 1500, 1500]> softmax_8_cast_fp16 = softmax(axis = softmax_8_axis_0, x = matmul_8_cast_fp16)[name = tensor<string, []>("softmax_8_cast_fp16")];
            tensor<bool, []> a_17_transpose_x_0 = const()[name = tensor<string, []>("a_17_transpose_x_0"), val = tensor<bool, []>(false)];
            tensor<bool, []> a_17_transpose_y_0 = const()[name = tensor<string, []>("a_17_transpose_y_0"), val = tensor<bool, []>(false)];
            tensor<fp16, [1, 12, 1500, 64]> v_35_cast_fp16 = transpose(perm = var_897, x = var_896_cast_fp16)[name = tensor<string, []>("transpose_87")];
            tensor<fp16, [1, 12, 1500, 64]> a_17_cast_fp16 = matmul(transpose_x = a_17_transpose_x_0, transpose_y = a_17_transpose_y_0, x = softmax_8_cast_fp16, y = v_35_cast_fp16)[name = tensor<string, []>("a_17_cast_fp16")];
            tensor<int32, [4]> var_900 = const()[name = tensor<string, []>("op_900"), val = tensor<int32, [4]>([0, 2, 1, 3])];
            tensor<int32, [3]> concat_8 = const()[name = tensor<string, []>("concat_8"), val = tensor<int32, [3]>([1, 1500, 768])];
            tensor<fp16, [1, 1500, 12, 64]> var_901_cast_fp16 = transpose(perm = var_900, x = a_17_cast_fp16)[name = tensor<string, []>("transpose_84")];
            tensor<fp16, [1, 1500, 768]> x_107_cast_fp16 = reshape(shape = concat_8, x = var_901_cast_fp16)[name = tensor<string, []>("x_107_cast_fp16")];
            tensor<fp16, [768, 768]> const_151_to_fp16 = const()[name = tensor<string, []>("const_151_to_fp16"), val = tensor<fp16, [768, 768]>(BLOBFILE(path = tensor<string, []>("@model_path/weights/weight.bin"), offset = tensor<uint64, []>(123163520)))];
            tensor<fp16, [768]> const_152_to_fp16 = const()[name = tensor<string, []>("const_152_to_fp16"), val = tensor<fp16, [768]>(BLOBFILE(path = tensor<string, []>("@model_path/weights/weight.bin"), offset = tensor<uint64, []>(124343232)))];
            tensor<fp16, [1, 1500, 768]> linear_51_cast_fp16 = linear(bias = const_152_to_fp16, weight = const_151_to_fp16, x = x_107_cast_fp16)[name = tensor<string, []>("linear_51_cast_fp16")];
            tensor<fp16, [1, 1500, 768]> x_109_cast_fp16 = add(x = x_103_cast_fp16, y = linear_51_cast_fp16)[name = tensor<string, []>("x_109_cast_fp16")];
            tensor<int32, [1]> var_913_axes_0 = const()[name = tensor<string, []>("op_913_axes_0"), val = tensor<int32, [1]>([-1])];
            tensor<fp16, [768]> blocks_8_mlp_ln_weight_to_fp16 = const()[name = tensor<string, []>("blocks_8_mlp_ln_weight_to_fp16"), val = tensor<fp16, [768]>(BLOBFILE(path = tensor<string, []>("@model_path/weights/weight.bin"), offset = tensor<uint64, []>(124344832)))];
            tensor<fp16, [768]> blocks_8_mlp_ln_bias_to_fp16 = const()[name = tensor<string, []>("blocks_8_mlp_ln_bias_to_fp16"), val = tensor<fp16, [768]>(BLOBFILE(path = tensor<string, []>("@model_path/weights/weight.bin"), offset = tensor<uint64, []>(124346432)))];
            tensor<fp16, [1, 1500, 768]> var_913_cast_fp16 = layer_norm(axes = var_913_axes_0, beta = blocks_8_mlp_ln_bias_to_fp16, epsilon = var_849_to_fp16, gamma = blocks_8_mlp_ln_weight_to_fp16, x = x_109_cast_fp16)[name = tensor<string, []>("op_913_cast_fp16")];
            tensor<fp16, [3072, 768]> const_153_to_fp16 = const()[name = tensor<string, []>("const_153_to_fp16"), val = tensor<fp16, [3072, 768]>(BLOBFILE(path = tensor<string, []>("@model_path/weights/weight.bin"), offset = tensor<uint64, []>(124348032)))];
            tensor<fp16, [3072]> const_154_to_fp16 = const()[name = tensor<string, []>("const_154_to_fp16"), val = tensor<fp16, [3072]>(BLOBFILE(path = tensor<string, []>("@model_path/weights/weight.bin"), offset = tensor<uint64, []>(129066688)))];
            tensor<fp16, [1, 1500, 3072]> linear_52_cast_fp16 = linear(bias = const_154_to_fp16, weight = const_153_to_fp16, x = var_913_cast_fp16)[name = tensor<string, []>("linear_52_cast_fp16")];
            tensor<string, []> x_113_mode_0 = const()[name = tensor<string, []>("x_113_mode_0"), val = tensor<string, []>("EXACT")];
            tensor<fp16, [1, 1500, 3072]> x_113_cast_fp16 = gelu(mode = x_113_mode_0, x = linear_52_cast_fp16)[name = tensor<string, []>("x_113_cast_fp16")];
            tensor<fp16, [768, 3072]> const_155_to_fp16 = const()[name = tensor<string, []>("const_155_to_fp16"), val = tensor<fp16, [768, 3072]>(BLOBFILE(path = tensor<string, []>("@model_path/weights/weight.bin"), offset = tensor<uint64, []>(129072896)))];
            tensor<fp16, [768]> const_156_to_fp16 = const()[name = tensor<string, []>("const_156_to_fp16"), val = tensor<fp16, [768]>(BLOBFILE(path = tensor<string, []>("@model_path/weights/weight.bin"), offset = tensor<uint64, []>(133791552)))];
            tensor<fp16, [1, 1500, 768]> linear_53_cast_fp16 = linear(bias = const_156_to_fp16, weight = const_155_to_fp16, x = x_113_cast_fp16)[name = tensor<string, []>("linear_53_cast_fp16")];
            tensor<fp16, [1, 1500, 768]> x_115_cast_fp16 = add(x = x_109_cast_fp16, y = linear_53_cast_fp16)[name = tensor<string, []>("x_115_cast_fp16")];
            tensor<int32, [1]> var_954_axes_0 = const()[name = tensor<string, []>("op_954_axes_0"), val = tensor<int32, [1]>([-1])];
            tensor<fp16, [768]> blocks_9_attn_ln_weight_to_fp16 = const()[name = tensor<string, []>("blocks_9_attn_ln_weight_to_fp16"), val = tensor<fp16, [768]>(BLOBFILE(path = tensor<string, []>("@model_path/weights/weight.bin"), offset = tensor<uint64, []>(133793152)))];
            tensor<fp16, [768]> blocks_9_attn_ln_bias_to_fp16 = const()[name = tensor<string, []>("blocks_9_attn_ln_bias_to_fp16"), val = tensor<fp16, [768]>(BLOBFILE(path = tensor<string, []>("@model_path/weights/weight.bin"), offset = tensor<uint64, []>(133794752)))];
            tensor<fp16, []> var_944_to_fp16 = const()[name = tensor<string, []>("op_944_to_fp16"), val = tensor<fp16, []>(0x1.5p-17)];
            tensor<fp16, [1, 1500, 768]> var_954_cast_fp16 = layer_norm(axes = var_954_axes_0, beta = blocks_9_attn_ln_bias_to_fp16, epsilon = var_944_to_fp16, gamma = blocks_9_attn_ln_weight_to_fp16, x = x_115_cast_fp16)[name = tensor<string, []>("op_954_cast_fp16")];
            tensor<fp16, [768, 768]> const_157_to_fp16 = const()[name = tensor<string, []>("const_157_to_fp16"), val = tensor<fp16, [768, 768]>(BLOBFILE(path = tensor<string, []>("@model_path/weights/weight.bin"), offset = tensor<uint64, []>(133796352)))];
            tensor<fp16, [768]> const_158_to_fp16 = const()[name = tensor<string, []>("const_158_to_fp16"), val = tensor<fp16, [768]>(BLOBFILE(path = tensor<string, []>("@model_path/weights/weight.bin"), offset = tensor<uint64, []>(134976064)))];
            tensor<fp16, [1, 1500, 768]> linear_54_cast_fp16 = linear(bias = const_158_to_fp16, weight = const_157_to_fp16, x = var_954_cast_fp16)[name = tensor<string, []>("linear_54_cast_fp16")];
            tensor<fp16, [768, 768]> const_159_to_fp16 = const()[name = tensor<string, []>("const_159_to_fp16"), val = tensor<fp16, [768, 768]>(BLOBFILE(path = tensor<string, []>("@model_path/weights/weight.bin"), offset = tensor<uint64, []>(134977664)))];
            tensor<fp16, [1, 1500, 768]> linear_55_cast_fp16 = linear(bias = linear_1_bias_0_to_fp16, weight = const_159_to_fp16, x = var_954_cast_fp16)[name = tensor<string, []>("linear_55_cast_fp16")];
            tensor<fp16, [768, 768]> const_160_to_fp16 = const()[name = tensor<string, []>("const_160_to_fp16"), val = tensor<fp16, [768, 768]>(BLOBFILE(path = tensor<string, []>("@model_path/weights/weight.bin"), offset = tensor<uint64, []>(136157376)))];
            tensor<fp16, [768]> const_161_to_fp16 = const()[name = tensor<string, []>("const_161_to_fp16"), val = tensor<fp16, [768]>(BLOBFILE(path = tensor<string, []>("@model_path/weights/weight.bin"), offset = tensor<uint64, []>(137337088)))];
            tensor<fp16, [1, 1500, 768]> linear_56_cast_fp16 = linear(bias = const_161_to_fp16, weight = const_160_to_fp16, x = var_954_cast_fp16)[name = tensor<string, []>("linear_56_cast_fp16")];
            tensor<int32, [4]> var_978 = const()[name = tensor<string, []>("op_978"), val = tensor<int32, [4]>([1, 1500, 12, -1])];
            tensor<fp16, [1, 1500, 12, 64]> var_979_cast_fp16 = reshape(shape = var_978, x = linear_54_cast_fp16)[name = tensor<string, []>("op_979_cast_fp16")];
            tensor<int32, [4]> var_984 = const()[name = tensor<string, []>("op_984"), val = tensor<int32, [4]>([1, 1500, 12, -1])];
            tensor<fp16, [1, 1500, 12, 64]> var_985_cast_fp16 = reshape(shape = var_984, x = linear_55_cast_fp16)[name = tensor<string, []>("op_985_cast_fp16")];
            tensor<int32, [4]> var_990 = const()[name = tensor<string, []>("op_990"), val = tensor<int32, [4]>([1, 1500, 12, -1])];
            tensor<fp16, [1, 1500, 12, 64]> var_991_cast_fp16 = reshape(shape = var_990, x = linear_56_cast_fp16)[name = tensor<string, []>("op_991_cast_fp16")];
            tensor<int32, [4]> var_992 = const()[name = tensor<string, []>("op_992"), val = tensor<int32, [4]>([0, 2, 1, 3])];
            tensor<fp16, []> mul_9_y_0_to_fp16 = const()[name = tensor<string, []>("mul_9_y_0_to_fp16"), val = tensor<fp16, []>(0x1p-3)];
            tensor<fp16, [1, 1500, 12, 64]> mul_9_cast_fp16 = mul(x = var_979_cast_fp16, y = mul_9_y_0_to_fp16)[name = tensor<string, []>("mul_9_cast_fp16")];
            tensor<bool, []> matmul_9_transpose_y_0 = const()[name = tensor<string, []>("matmul_9_transpose_y_0"), val = tensor<bool, []>(true)];
            tensor<bool, []> matmul_9_transpose_x_0 = const()[name = tensor<string, []>("matmul_9_transpose_x_0"), val = tensor<bool, []>(false)];
            tensor<int32, [4]> transpose_66_perm_0 = const()[name = tensor<string, []>("transpose_66_perm_0"), val = tensor<int32, [4]>([0, 2, -3, -1])];
            tensor<int32, [4]> transpose_67_perm_0 = const()[name = tensor<string, []>("transpose_67_perm_0"), val = tensor<int32, [4]>([0, 2, -3, -1])];
            tensor<fp16, [1, 12, 1500, 64]> transpose_67 = transpose(perm = transpose_67_perm_0, x = var_985_cast_fp16)[name = tensor<string, []>("transpose_81")];
            tensor<fp16, [1, 12, 1500, 64]> transpose_66 = transpose(perm = transpose_66_perm_0, x = mul_9_cast_fp16)[name = tensor<string, []>("transpose_82")];
            tensor<fp16, [1, 12, 1500, 1500]> matmul_9_cast_fp16 = matmul(transpose_x = matmul_9_transpose_x_0, transpose_y = matmul_9_transpose_y_0, x = transpose_66, y = transpose_67)[name = tensor<string, []>("matmul_9_cast_fp16")];
            tensor<int32, []> softmax_9_axis_0 = const()[name = tensor<string, []>("softmax_9_axis_0"), val = tensor<int32, []>(-1)];
            tensor<fp16, [1, 12, 1500, 1500]> softmax_9_cast_fp16 = softmax(axis = softmax_9_axis_0, x = matmul_9_cast_fp16)[name = tensor<string, []>("softmax_9_cast_fp16")];
            tensor<bool, []> a_19_transpose_x_0 = const()[name = tensor<string, []>("a_19_transpose_x_0"), val = tensor<bool, []>(false)];
            tensor<bool, []> a_19_transpose_y_0 = const()[name = tensor<string, []>("a_19_transpose_y_0"), val = tensor<bool, []>(false)];
            tensor<fp16, [1, 12, 1500, 64]> v_39_cast_fp16 = transpose(perm = var_992, x = var_991_cast_fp16)[name = tensor<string, []>("transpose_83")];
            tensor<fp16, [1, 12, 1500, 64]> a_19_cast_fp16 = matmul(transpose_x = a_19_transpose_x_0, transpose_y = a_19_transpose_y_0, x = softmax_9_cast_fp16, y = v_39_cast_fp16)[name = tensor<string, []>("a_19_cast_fp16")];
            tensor<int32, [4]> var_995 = const()[name = tensor<string, []>("op_995"), val = tensor<int32, [4]>([0, 2, 1, 3])];
            tensor<int32, [3]> concat_9 = const()[name = tensor<string, []>("concat_9"), val = tensor<int32, [3]>([1, 1500, 768])];
            tensor<fp16, [1, 1500, 12, 64]> var_996_cast_fp16 = transpose(perm = var_995, x = a_19_cast_fp16)[name = tensor<string, []>("transpose_80")];
            tensor<fp16, [1, 1500, 768]> x_119_cast_fp16 = reshape(shape = concat_9, x = var_996_cast_fp16)[name = tensor<string, []>("x_119_cast_fp16")];
            tensor<fp16, [768, 768]> const_168_to_fp16 = const()[name = tensor<string, []>("const_168_to_fp16"), val = tensor<fp16, [768, 768]>(BLOBFILE(path = tensor<string, []>("@model_path/weights/weight.bin"), offset = tensor<uint64, []>(137338688)))];
            tensor<fp16, [768]> const_169_to_fp16 = const()[name = tensor<string, []>("const_169_to_fp16"), val = tensor<fp16, [768]>(BLOBFILE(path = tensor<string, []>("@model_path/weights/weight.bin"), offset = tensor<uint64, []>(138518400)))];
            tensor<fp16, [1, 1500, 768]> linear_57_cast_fp16 = linear(bias = const_169_to_fp16, weight = const_168_to_fp16, x = x_119_cast_fp16)[name = tensor<string, []>("linear_57_cast_fp16")];
            tensor<fp16, [1, 1500, 768]> x_121_cast_fp16 = add(x = x_115_cast_fp16, y = linear_57_cast_fp16)[name = tensor<string, []>("x_121_cast_fp16")];
            tensor<int32, [1]> var_1008_axes_0 = const()[name = tensor<string, []>("op_1008_axes_0"), val = tensor<int32, [1]>([-1])];
            tensor<fp16, [768]> blocks_9_mlp_ln_weight_to_fp16 = const()[name = tensor<string, []>("blocks_9_mlp_ln_weight_to_fp16"), val = tensor<fp16, [768]>(BLOBFILE(path = tensor<string, []>("@model_path/weights/weight.bin"), offset = tensor<uint64, []>(138520000)))];
            tensor<fp16, [768]> blocks_9_mlp_ln_bias_to_fp16 = const()[name = tensor<string, []>("blocks_9_mlp_ln_bias_to_fp16"), val = tensor<fp16, [768]>(BLOBFILE(path = tensor<string, []>("@model_path/weights/weight.bin"), offset = tensor<uint64, []>(138521600)))];
            tensor<fp16, [1, 1500, 768]> var_1008_cast_fp16 = layer_norm(axes = var_1008_axes_0, beta = blocks_9_mlp_ln_bias_to_fp16, epsilon = var_944_to_fp16, gamma = blocks_9_mlp_ln_weight_to_fp16, x = x_121_cast_fp16)[name = tensor<string, []>("op_1008_cast_fp16")];
            tensor<fp16, [3072, 768]> const_170_to_fp16 = const()[name = tensor<string, []>("const_170_to_fp16"), val = tensor<fp16, [3072, 768]>(BLOBFILE(path = tensor<string, []>("@model_path/weights/weight.bin"), offset = tensor<uint64, []>(138523200)))];
            tensor<fp16, [3072]> const_171_to_fp16 = const()[name = tensor<string, []>("const_171_to_fp16"), val = tensor<fp16, [3072]>(BLOBFILE(path = tensor<string, []>("@model_path/weights/weight.bin"), offset = tensor<uint64, []>(143241856)))];
            tensor<fp16, [1, 1500, 3072]> linear_58_cast_fp16 = linear(bias = const_171_to_fp16, weight = const_170_to_fp16, x = var_1008_cast_fp16)[name = tensor<string, []>("linear_58_cast_fp16")];
            tensor<string, []> x_125_mode_0 = const()[name = tensor<string, []>("x_125_mode_0"), val = tensor<string, []>("EXACT")];
            tensor<fp16, [1, 1500, 3072]> x_125_cast_fp16 = gelu(mode = x_125_mode_0, x = linear_58_cast_fp16)[name = tensor<string, []>("x_125_cast_fp16")];
            tensor<fp16, [768, 3072]> const_172_to_fp16 = const()[name = tensor<string, []>("const_172_to_fp16"), val = tensor<fp16, [768, 3072]>(BLOBFILE(path = tensor<string, []>("@model_path/weights/weight.bin"), offset = tensor<uint64, []>(143248064)))];
            tensor<fp16, [768]> const_173_to_fp16 = const()[name = tensor<string, []>("const_173_to_fp16"), val = tensor<fp16, [768]>(BLOBFILE(path = tensor<string, []>("@model_path/weights/weight.bin"), offset = tensor<uint64, []>(147966720)))];
            tensor<fp16, [1, 1500, 768]> linear_59_cast_fp16 = linear(bias = const_173_to_fp16, weight = const_172_to_fp16, x = x_125_cast_fp16)[name = tensor<string, []>("linear_59_cast_fp16")];
            tensor<fp16, [1, 1500, 768]> x_127_cast_fp16 = add(x = x_121_cast_fp16, y = linear_59_cast_fp16)[name = tensor<string, []>("x_127_cast_fp16")];
            tensor<int32, [1]> var_1049_axes_0 = const()[name = tensor<string, []>("op_1049_axes_0"), val = tensor<int32, [1]>([-1])];
            tensor<fp16, [768]> blocks_10_attn_ln_weight_to_fp16 = const()[name = tensor<string, []>("blocks_10_attn_ln_weight_to_fp16"), val = tensor<fp16, [768]>(BLOBFILE(path = tensor<string, []>("@model_path/weights/weight.bin"), offset = tensor<uint64, []>(147968320)))];
            tensor<fp16, [768]> blocks_10_attn_ln_bias_to_fp16 = const()[name = tensor<string, []>("blocks_10_attn_ln_bias_to_fp16"), val = tensor<fp16, [768]>(BLOBFILE(path = tensor<string, []>("@model_path/weights/weight.bin"), offset = tensor<uint64, []>(147969920)))];
            tensor<fp16, []> var_1039_to_fp16 = const()[name = tensor<string, []>("op_1039_to_fp16"), val = tensor<fp16, []>(0x1.5p-17)];
            tensor<fp16, [1, 1500, 768]> var_1049_cast_fp16 = layer_norm(axes = var_1049_axes_0, beta = blocks_10_attn_ln_bias_to_fp16, epsilon = var_1039_to_fp16, gamma = blocks_10_attn_ln_weight_to_fp16, x = x_127_cast_fp16)[name = tensor<string, []>("op_1049_cast_fp16")];
            tensor<fp16, [768, 768]> const_174_to_fp16 = const()[name = tensor<string, []>("const_174_to_fp16"), val = tensor<fp16, [768, 768]>(BLOBFILE(path = tensor<string, []>("@model_path/weights/weight.bin"), offset = tensor<uint64, []>(147971520)))];
            tensor<fp16, [768]> const_175_to_fp16 = const()[name = tensor<string, []>("const_175_to_fp16"), val = tensor<fp16, [768]>(BLOBFILE(path = tensor<string, []>("@model_path/weights/weight.bin"), offset = tensor<uint64, []>(149151232)))];
            tensor<fp16, [1, 1500, 768]> linear_60_cast_fp16 = linear(bias = const_175_to_fp16, weight = const_174_to_fp16, x = var_1049_cast_fp16)[name = tensor<string, []>("linear_60_cast_fp16")];
            tensor<fp16, [768, 768]> const_176_to_fp16 = const()[name = tensor<string, []>("const_176_to_fp16"), val = tensor<fp16, [768, 768]>(BLOBFILE(path = tensor<string, []>("@model_path/weights/weight.bin"), offset = tensor<uint64, []>(149152832)))];
            tensor<fp16, [1, 1500, 768]> linear_61_cast_fp16 = linear(bias = linear_1_bias_0_to_fp16, weight = const_176_to_fp16, x = var_1049_cast_fp16)[name = tensor<string, []>("linear_61_cast_fp16")];
            tensor<fp16, [768, 768]> const_177_to_fp16 = const()[name = tensor<string, []>("const_177_to_fp16"), val = tensor<fp16, [768, 768]>(BLOBFILE(path = tensor<string, []>("@model_path/weights/weight.bin"), offset = tensor<uint64, []>(150332544)))];
            tensor<fp16, [768]> const_178_to_fp16 = const()[name = tensor<string, []>("const_178_to_fp16"), val = tensor<fp16, [768]>(BLOBFILE(path = tensor<string, []>("@model_path/weights/weight.bin"), offset = tensor<uint64, []>(151512256)))];
            tensor<fp16, [1, 1500, 768]> linear_62_cast_fp16 = linear(bias = const_178_to_fp16, weight = const_177_to_fp16, x = var_1049_cast_fp16)[name = tensor<string, []>("linear_62_cast_fp16")];
            tensor<int32, [4]> var_1073 = const()[name = tensor<string, []>("op_1073"), val = tensor<int32, [4]>([1, 1500, 12, -1])];
            tensor<fp16, [1, 1500, 12, 64]> var_1074_cast_fp16 = reshape(shape = var_1073, x = linear_60_cast_fp16)[name = tensor<string, []>("op_1074_cast_fp16")];
            tensor<int32, [4]> var_1079 = const()[name = tensor<string, []>("op_1079"), val = tensor<int32, [4]>([1, 1500, 12, -1])];
            tensor<fp16, [1, 1500, 12, 64]> var_1080_cast_fp16 = reshape(shape = var_1079, x = linear_61_cast_fp16)[name = tensor<string, []>("op_1080_cast_fp16")];
            tensor<int32, [4]> var_1085 = const()[name = tensor<string, []>("op_1085"), val = tensor<int32, [4]>([1, 1500, 12, -1])];
            tensor<fp16, [1, 1500, 12, 64]> var_1086_cast_fp16 = reshape(shape = var_1085, x = linear_62_cast_fp16)[name = tensor<string, []>("op_1086_cast_fp16")];
            tensor<int32, [4]> var_1087 = const()[name = tensor<string, []>("op_1087"), val = tensor<int32, [4]>([0, 2, 1, 3])];
            tensor<fp16, []> mul_10_y_0_to_fp16 = const()[name = tensor<string, []>("mul_10_y_0_to_fp16"), val = tensor<fp16, []>(0x1p-3)];
            tensor<fp16, [1, 1500, 12, 64]> mul_10_cast_fp16 = mul(x = var_1074_cast_fp16, y = mul_10_y_0_to_fp16)[name = tensor<string, []>("mul_10_cast_fp16")];
            tensor<bool, []> matmul_10_transpose_y_0 = const()[name = tensor<string, []>("matmul_10_transpose_y_0"), val = tensor<bool, []>(true)];
            tensor<bool, []> matmul_10_transpose_x_0 = const()[name = tensor<string, []>("matmul_10_transpose_x_0"), val = tensor<bool, []>(false)];
            tensor<int32, [4]> transpose_68_perm_0 = const()[name = tensor<string, []>("transpose_68_perm_0"), val = tensor<int32, [4]>([0, 2, -3, -1])];
            tensor<int32, [4]> transpose_69_perm_0 = const()[name = tensor<string, []>("transpose_69_perm_0"), val = tensor<int32, [4]>([0, 2, -3, -1])];
            tensor<fp16, [1, 12, 1500, 64]> transpose_69 = transpose(perm = transpose_69_perm_0, x = var_1080_cast_fp16)[name = tensor<string, []>("transpose_77")];
            tensor<fp16, [1, 12, 1500, 64]> transpose_68 = transpose(perm = transpose_68_perm_0, x = mul_10_cast_fp16)[name = tensor<string, []>("transpose_78")];
            tensor<fp16, [1, 12, 1500, 1500]> matmul_10_cast_fp16 = matmul(transpose_x = matmul_10_transpose_x_0, transpose_y = matmul_10_transpose_y_0, x = transpose_68, y = transpose_69)[name = tensor<string, []>("matmul_10_cast_fp16")];
            tensor<int32, []> softmax_10_axis_0 = const()[name = tensor<string, []>("softmax_10_axis_0"), val = tensor<int32, []>(-1)];
            tensor<fp16, [1, 12, 1500, 1500]> softmax_10_cast_fp16 = softmax(axis = softmax_10_axis_0, x = matmul_10_cast_fp16)[name = tensor<string, []>("softmax_10_cast_fp16")];
            tensor<bool, []> a_21_transpose_x_0 = const()[name = tensor<string, []>("a_21_transpose_x_0"), val = tensor<bool, []>(false)];
            tensor<bool, []> a_21_transpose_y_0 = const()[name = tensor<string, []>("a_21_transpose_y_0"), val = tensor<bool, []>(false)];
            tensor<fp16, [1, 12, 1500, 64]> v_43_cast_fp16 = transpose(perm = var_1087, x = var_1086_cast_fp16)[name = tensor<string, []>("transpose_79")];
            tensor<fp16, [1, 12, 1500, 64]> a_21_cast_fp16 = matmul(transpose_x = a_21_transpose_x_0, transpose_y = a_21_transpose_y_0, x = softmax_10_cast_fp16, y = v_43_cast_fp16)[name = tensor<string, []>("a_21_cast_fp16")];
            tensor<int32, [4]> var_1090 = const()[name = tensor<string, []>("op_1090"), val = tensor<int32, [4]>([0, 2, 1, 3])];
            tensor<int32, [3]> concat_10 = const()[name = tensor<string, []>("concat_10"), val = tensor<int32, [3]>([1, 1500, 768])];
            tensor<fp16, [1, 1500, 12, 64]> var_1091_cast_fp16 = transpose(perm = var_1090, x = a_21_cast_fp16)[name = tensor<string, []>("transpose_76")];
            tensor<fp16, [1, 1500, 768]> x_131_cast_fp16 = reshape(shape = concat_10, x = var_1091_cast_fp16)[name = tensor<string, []>("x_131_cast_fp16")];
            tensor<fp16, [768, 768]> const_185_to_fp16 = const()[name = tensor<string, []>("const_185_to_fp16"), val = tensor<fp16, [768, 768]>(BLOBFILE(path = tensor<string, []>("@model_path/weights/weight.bin"), offset = tensor<uint64, []>(151513856)))];
            tensor<fp16, [768]> const_186_to_fp16 = const()[name = tensor<string, []>("const_186_to_fp16"), val = tensor<fp16, [768]>(BLOBFILE(path = tensor<string, []>("@model_path/weights/weight.bin"), offset = tensor<uint64, []>(152693568)))];
            tensor<fp16, [1, 1500, 768]> linear_63_cast_fp16 = linear(bias = const_186_to_fp16, weight = const_185_to_fp16, x = x_131_cast_fp16)[name = tensor<string, []>("linear_63_cast_fp16")];
            tensor<fp16, [1, 1500, 768]> x_133_cast_fp16 = add(x = x_127_cast_fp16, y = linear_63_cast_fp16)[name = tensor<string, []>("x_133_cast_fp16")];
            tensor<int32, [1]> var_1103_axes_0 = const()[name = tensor<string, []>("op_1103_axes_0"), val = tensor<int32, [1]>([-1])];
            tensor<fp16, [768]> blocks_10_mlp_ln_weight_to_fp16 = const()[name = tensor<string, []>("blocks_10_mlp_ln_weight_to_fp16"), val = tensor<fp16, [768]>(BLOBFILE(path = tensor<string, []>("@model_path/weights/weight.bin"), offset = tensor<uint64, []>(152695168)))];
            tensor<fp16, [768]> blocks_10_mlp_ln_bias_to_fp16 = const()[name = tensor<string, []>("blocks_10_mlp_ln_bias_to_fp16"), val = tensor<fp16, [768]>(BLOBFILE(path = tensor<string, []>("@model_path/weights/weight.bin"), offset = tensor<uint64, []>(152696768)))];
            tensor<fp16, [1, 1500, 768]> var_1103_cast_fp16 = layer_norm(axes = var_1103_axes_0, beta = blocks_10_mlp_ln_bias_to_fp16, epsilon = var_1039_to_fp16, gamma = blocks_10_mlp_ln_weight_to_fp16, x = x_133_cast_fp16)[name = tensor<string, []>("op_1103_cast_fp16")];
            tensor<fp16, [3072, 768]> const_187_to_fp16 = const()[name = tensor<string, []>("const_187_to_fp16"), val = tensor<fp16, [3072, 768]>(BLOBFILE(path = tensor<string, []>("@model_path/weights/weight.bin"), offset = tensor<uint64, []>(152698368)))];
            tensor<fp16, [3072]> const_188_to_fp16 = const()[name = tensor<string, []>("const_188_to_fp16"), val = tensor<fp16, [3072]>(BLOBFILE(path = tensor<string, []>("@model_path/weights/weight.bin"), offset = tensor<uint64, []>(157417024)))];
            tensor<fp16, [1, 1500, 3072]> linear_64_cast_fp16 = linear(bias = const_188_to_fp16, weight = const_187_to_fp16, x = var_1103_cast_fp16)[name = tensor<string, []>("linear_64_cast_fp16")];
            tensor<string, []> x_137_mode_0 = const()[name = tensor<string, []>("x_137_mode_0"), val = tensor<string, []>("EXACT")];
            tensor<fp16, [1, 1500, 3072]> x_137_cast_fp16 = gelu(mode = x_137_mode_0, x = linear_64_cast_fp16)[name = tensor<string, []>("x_137_cast_fp16")];
            tensor<fp16, [768, 3072]> const_189_to_fp16 = const()[name = tensor<string, []>("const_189_to_fp16"), val = tensor<fp16, [768, 3072]>(BLOBFILE(path = tensor<string, []>("@model_path/weights/weight.bin"), offset = tensor<uint64, []>(157423232)))];
            tensor<fp16, [768]> const_190_to_fp16 = const()[name = tensor<string, []>("const_190_to_fp16"), val = tensor<fp16, [768]>(BLOBFILE(path = tensor<string, []>("@model_path/weights/weight.bin"), offset = tensor<uint64, []>(162141888)))];
            tensor<fp16, [1, 1500, 768]> linear_65_cast_fp16 = linear(bias = const_190_to_fp16, weight = const_189_to_fp16, x = x_137_cast_fp16)[name = tensor<string, []>("linear_65_cast_fp16")];
            tensor<fp16, [1, 1500, 768]> x_139_cast_fp16 = add(x = x_133_cast_fp16, y = linear_65_cast_fp16)[name = tensor<string, []>("x_139_cast_fp16")];
            tensor<int32, [1]> var_1144_axes_0 = const()[name = tensor<string, []>("op_1144_axes_0"), val = tensor<int32, [1]>([-1])];
            tensor<fp16, [768]> blocks_11_attn_ln_weight_to_fp16 = const()[name = tensor<string, []>("blocks_11_attn_ln_weight_to_fp16"), val = tensor<fp16, [768]>(BLOBFILE(path = tensor<string, []>("@model_path/weights/weight.bin"), offset = tensor<uint64, []>(162143488)))];
            tensor<fp16, [768]> blocks_11_attn_ln_bias_to_fp16 = const()[name = tensor<string, []>("blocks_11_attn_ln_bias_to_fp16"), val = tensor<fp16, [768]>(BLOBFILE(path = tensor<string, []>("@model_path/weights/weight.bin"), offset = tensor<uint64, []>(162145088)))];
            tensor<fp16, []> var_1134_to_fp16 = const()[name = tensor<string, []>("op_1134_to_fp16"), val = tensor<fp16, []>(0x1.5p-17)];
            tensor<fp16, [1, 1500, 768]> var_1144_cast_fp16 = layer_norm(axes = var_1144_axes_0, beta = blocks_11_attn_ln_bias_to_fp16, epsilon = var_1134_to_fp16, gamma = blocks_11_attn_ln_weight_to_fp16, x = x_139_cast_fp16)[name = tensor<string, []>("op_1144_cast_fp16")];
            tensor<fp16, [768, 768]> const_191_to_fp16 = const()[name = tensor<string, []>("const_191_to_fp16"), val = tensor<fp16, [768, 768]>(BLOBFILE(path = tensor<string, []>("@model_path/weights/weight.bin"), offset = tensor<uint64, []>(162146688)))];
            tensor<fp16, [768]> const_192_to_fp16 = const()[name = tensor<string, []>("const_192_to_fp16"), val = tensor<fp16, [768]>(BLOBFILE(path = tensor<string, []>("@model_path/weights/weight.bin"), offset = tensor<uint64, []>(163326400)))];
            tensor<fp16, [1, 1500, 768]> linear_66_cast_fp16 = linear(bias = const_192_to_fp16, weight = const_191_to_fp16, x = var_1144_cast_fp16)[name = tensor<string, []>("linear_66_cast_fp16")];
            tensor<fp16, [768, 768]> const_193_to_fp16 = const()[name = tensor<string, []>("const_193_to_fp16"), val = tensor<fp16, [768, 768]>(BLOBFILE(path = tensor<string, []>("@model_path/weights/weight.bin"), offset = tensor<uint64, []>(163328000)))];
            tensor<fp16, [1, 1500, 768]> linear_67_cast_fp16 = linear(bias = linear_1_bias_0_to_fp16, weight = const_193_to_fp16, x = var_1144_cast_fp16)[name = tensor<string, []>("linear_67_cast_fp16")];
            tensor<fp16, [768, 768]> const_194_to_fp16 = const()[name = tensor<string, []>("const_194_to_fp16"), val = tensor<fp16, [768, 768]>(BLOBFILE(path = tensor<string, []>("@model_path/weights/weight.bin"), offset = tensor<uint64, []>(164507712)))];
            tensor<fp16, [768]> const_195_to_fp16 = const()[name = tensor<string, []>("const_195_to_fp16"), val = tensor<fp16, [768]>(BLOBFILE(path = tensor<string, []>("@model_path/weights/weight.bin"), offset = tensor<uint64, []>(165687424)))];
            tensor<fp16, [1, 1500, 768]> linear_68_cast_fp16 = linear(bias = const_195_to_fp16, weight = const_194_to_fp16, x = var_1144_cast_fp16)[name = tensor<string, []>("linear_68_cast_fp16")];
            tensor<int32, [4]> var_1168 = const()[name = tensor<string, []>("op_1168"), val = tensor<int32, [4]>([1, 1500, 12, -1])];
            tensor<fp16, [1, 1500, 12, 64]> var_1169_cast_fp16 = reshape(shape = var_1168, x = linear_66_cast_fp16)[name = tensor<string, []>("op_1169_cast_fp16")];
            tensor<int32, [4]> var_1174 = const()[name = tensor<string, []>("op_1174"), val = tensor<int32, [4]>([1, 1500, 12, -1])];
            tensor<fp16, [1, 1500, 12, 64]> var_1175_cast_fp16 = reshape(shape = var_1174, x = linear_67_cast_fp16)[name = tensor<string, []>("op_1175_cast_fp16")];
            tensor<int32, [4]> var_1180 = const()[name = tensor<string, []>("op_1180"), val = tensor<int32, [4]>([1, 1500, 12, -1])];
            tensor<fp16, [1, 1500, 12, 64]> var_1181_cast_fp16 = reshape(shape = var_1180, x = linear_68_cast_fp16)[name = tensor<string, []>("op_1181_cast_fp16")];
            tensor<int32, [4]> var_1182 = const()[name = tensor<string, []>("op_1182"), val = tensor<int32, [4]>([0, 2, 1, 3])];
            tensor<fp16, []> mul_11_y_0_to_fp16 = const()[name = tensor<string, []>("mul_11_y_0_to_fp16"), val = tensor<fp16, []>(0x1p-3)];
            tensor<fp16, [1, 1500, 12, 64]> mul_11_cast_fp16 = mul(x = var_1169_cast_fp16, y = mul_11_y_0_to_fp16)[name = tensor<string, []>("mul_11_cast_fp16")];
            tensor<bool, []> matmul_11_transpose_y_0 = const()[name = tensor<string, []>("matmul_11_transpose_y_0"), val = tensor<bool, []>(true)];
            tensor<bool, []> matmul_11_transpose_x_0 = const()[name = tensor<string, []>("matmul_11_transpose_x_0"), val = tensor<bool, []>(false)];
            tensor<int32, [4]> transpose_70_perm_0 = const()[name = tensor<string, []>("transpose_70_perm_0"), val = tensor<int32, [4]>([0, 2, -3, -1])];
            tensor<int32, [4]> transpose_71_perm_0 = const()[name = tensor<string, []>("transpose_71_perm_0"), val = tensor<int32, [4]>([0, 2, -3, -1])];
            tensor<fp16, [1, 12, 1500, 64]> transpose_71 = transpose(perm = transpose_71_perm_0, x = var_1175_cast_fp16)[name = tensor<string, []>("transpose_73")];
            tensor<fp16, [1, 12, 1500, 64]> transpose_70 = transpose(perm = transpose_70_perm_0, x = mul_11_cast_fp16)[name = tensor<string, []>("transpose_74")];
            tensor<fp16, [1, 12, 1500, 1500]> matmul_11_cast_fp16 = matmul(transpose_x = matmul_11_transpose_x_0, transpose_y = matmul_11_transpose_y_0, x = transpose_70, y = transpose_71)[name = tensor<string, []>("matmul_11_cast_fp16")];
            tensor<int32, []> softmax_11_axis_0 = const()[name = tensor<string, []>("softmax_11_axis_0"), val = tensor<int32, []>(-1)];
            tensor<fp16, [1, 12, 1500, 1500]> softmax_11_cast_fp16 = softmax(axis = softmax_11_axis_0, x = matmul_11_cast_fp16)[name = tensor<string, []>("softmax_11_cast_fp16")];
            tensor<bool, []> a_transpose_x_0 = const()[name = tensor<string, []>("a_transpose_x_0"), val = tensor<bool, []>(false)];
            tensor<bool, []> a_transpose_y_0 = const()[name = tensor<string, []>("a_transpose_y_0"), val = tensor<bool, []>(false)];
            tensor<fp16, [1, 12, 1500, 64]> v_cast_fp16 = transpose(perm = var_1182, x = var_1181_cast_fp16)[name = tensor<string, []>("transpose_75")];
            tensor<fp16, [1, 12, 1500, 64]> a_cast_fp16 = matmul(transpose_x = a_transpose_x_0, transpose_y = a_transpose_y_0, x = softmax_11_cast_fp16, y = v_cast_fp16)[name = tensor<string, []>("a_cast_fp16")];
            tensor<int32, [4]> var_1185 = const()[name = tensor<string, []>("op_1185"), val = tensor<int32, [4]>([0, 2, 1, 3])];
            tensor<int32, [3]> concat_11 = const()[name = tensor<string, []>("concat_11"), val = tensor<int32, [3]>([1, 1500, 768])];
            tensor<fp16, [1, 1500, 12, 64]> var_1186_cast_fp16 = transpose(perm = var_1185, x = a_cast_fp16)[name = tensor<string, []>("transpose_72")];
            tensor<fp16, [1, 1500, 768]> x_143_cast_fp16 = reshape(shape = concat_11, x = var_1186_cast_fp16)[name = tensor<string, []>("x_143_cast_fp16")];
            tensor<fp16, [768, 768]> const_202_to_fp16 = const()[name = tensor<string, []>("const_202_to_fp16"), val = tensor<fp16, [768, 768]>(BLOBFILE(path = tensor<string, []>("@model_path/weights/weight.bin"), offset = tensor<uint64, []>(165689024)))];
            tensor<fp16, [768]> const_203_to_fp16 = const()[name = tensor<string, []>("const_203_to_fp16"), val = tensor<fp16, [768]>(BLOBFILE(path = tensor<string, []>("@model_path/weights/weight.bin"), offset = tensor<uint64, []>(166868736)))];
            tensor<fp16, [1, 1500, 768]> linear_69_cast_fp16 = linear(bias = const_203_to_fp16, weight = const_202_to_fp16, x = x_143_cast_fp16)[name = tensor<string, []>("linear_69_cast_fp16")];
            tensor<fp16, [1, 1500, 768]> x_145_cast_fp16 = add(x = x_139_cast_fp16, y = linear_69_cast_fp16)[name = tensor<string, []>("x_145_cast_fp16")];
            tensor<int32, [1]> var_1198_axes_0 = const()[name = tensor<string, []>("op_1198_axes_0"), val = tensor<int32, [1]>([-1])];
            tensor<fp16, [768]> blocks_11_mlp_ln_weight_to_fp16 = const()[name = tensor<string, []>("blocks_11_mlp_ln_weight_to_fp16"), val = tensor<fp16, [768]>(BLOBFILE(path = tensor<string, []>("@model_path/weights/weight.bin"), offset = tensor<uint64, []>(166870336)))];
            tensor<fp16, [768]> blocks_11_mlp_ln_bias_to_fp16 = const()[name = tensor<string, []>("blocks_11_mlp_ln_bias_to_fp16"), val = tensor<fp16, [768]>(BLOBFILE(path = tensor<string, []>("@model_path/weights/weight.bin"), offset = tensor<uint64, []>(166871936)))];
            tensor<fp16, [1, 1500, 768]> var_1198_cast_fp16 = layer_norm(axes = var_1198_axes_0, beta = blocks_11_mlp_ln_bias_to_fp16, epsilon = var_1134_to_fp16, gamma = blocks_11_mlp_ln_weight_to_fp16, x = x_145_cast_fp16)[name = tensor<string, []>("op_1198_cast_fp16")];
            tensor<fp16, [3072, 768]> const_204_to_fp16 = const()[name = tensor<string, []>("const_204_to_fp16"), val = tensor<fp16, [3072, 768]>(BLOBFILE(path = tensor<string, []>("@model_path/weights/weight.bin"), offset = tensor<uint64, []>(166873536)))];
            tensor<fp16, [3072]> const_205_to_fp16 = const()[name = tensor<string, []>("const_205_to_fp16"), val = tensor<fp16, [3072]>(BLOBFILE(path = tensor<string, []>("@model_path/weights/weight.bin"), offset = tensor<uint64, []>(171592192)))];
            tensor<fp16, [1, 1500, 3072]> linear_70_cast_fp16 = linear(bias = const_205_to_fp16, weight = const_204_to_fp16, x = var_1198_cast_fp16)[name = tensor<string, []>("linear_70_cast_fp16")];
            tensor<string, []> x_149_mode_0 = const()[name = tensor<string, []>("x_149_mode_0"), val = tensor<string, []>("EXACT")];
            tensor<fp16, [1, 1500, 3072]> x_149_cast_fp16 = gelu(mode = x_149_mode_0, x = linear_70_cast_fp16)[name = tensor<string, []>("x_149_cast_fp16")];
            tensor<fp16, [768, 3072]> const_206_to_fp16 = const()[name = tensor<string, []>("const_206_to_fp16"), val = tensor<fp16, [768, 3072]>(BLOBFILE(path = tensor<string, []>("@model_path/weights/weight.bin"), offset = tensor<uint64, []>(171598400)))];
            tensor<fp16, [768]> const_207_to_fp16 = const()[name = tensor<string, []>("const_207_to_fp16"), val = tensor<fp16, [768]>(BLOBFILE(path = tensor<string, []>("@model_path/weights/weight.bin"), offset = tensor<uint64, []>(176317056)))];
            tensor<fp16, [1, 1500, 768]> linear_71_cast_fp16 = linear(bias = const_207_to_fp16, weight = const_206_to_fp16, x = x_149_cast_fp16)[name = tensor<string, []>("linear_71_cast_fp16")];
            tensor<fp16, [1, 1500, 768]> x_cast_fp16 = add(x = x_145_cast_fp16, y = linear_71_cast_fp16)[name = tensor<string, []>("x_cast_fp16")];
            tensor<int32, [1]> var_1227_axes_0 = const()[name = tensor<string, []>("op_1227_axes_0"), val = tensor<int32, [1]>([-1])];
            tensor<fp16, [768]> ln_post_weight_to_fp16 = const()[name = tensor<string, []>("ln_post_weight_to_fp16"), val = tensor<fp16, [768]>(BLOBFILE(path = tensor<string, []>("@model_path/weights/weight.bin"), offset = tensor<uint64, []>(176318656)))];
            tensor<fp16, [768]> ln_post_bias_to_fp16 = const()[name = tensor<string, []>("ln_post_bias_to_fp16"), val = tensor<fp16, [768]>(BLOBFILE(path = tensor<string, []>("@model_path/weights/weight.bin"), offset = tensor<uint64, []>(176320256)))];
            tensor<fp16, []> var_1218_to_fp16 = const()[name = tensor<string, []>("op_1218_to_fp16"), val = tensor<fp16, []>(0x1.5p-17)];
            tensor<fp16, [1, 1500, 768]> var_1227_cast_fp16 = layer_norm(axes = var_1227_axes_0, beta = ln_post_bias_to_fp16, epsilon = var_1218_to_fp16, gamma = ln_post_weight_to_fp16, x = x_cast_fp16)[name = tensor<string, []>("op_1227_cast_fp16")];
            tensor<string, []> var_1227_cast_fp16_to_fp32_dtype_0 = const()[name = tensor<string, []>("op_1227_cast_fp16_to_fp32_dtype_0"), val = tensor<string, []>("fp32")];
            tensor<fp32, [1, 1500, 768]> output = cast(dtype = var_1227_cast_fp16_to_fp32_dtype_0, x = var_1227_cast_fp16)[name = tensor<string, []>("cast_48")];
        } -> (output);
}